7767517
1405 1778
SherpaMetaData           sherpa_meta_data1        0 0 -23330=0 0=1 1=16 2=32 3=31 4=8 5=32 6=8 7=144
Input                    in0                      0 1 in0
Input                    in1                      0 1 in1
Split                    splitncnn_0              1 2 in1 2 3
Input                    in2                      0 1 in2
Input                    in3                      0 1 in3
Input                    in4                      0 1 in4
Input                    in5                      0 1 in5
Split                    splitncnn_1              1 2 in5 8 9
Input                    in6                      0 1 in6
Input                    in7                      0 1 in7
Input                    in8                      0 1 in8
Input                    in9                      0 1 in9
Split                    splitncnn_2              1 2 in9 14 15
Input                    in10                     0 1 in10
Input                    in11                     0 1 in11
Input                    in12                     0 1 in12
Input                    in13                     0 1 in13
Split                    splitncnn_3              1 2 in13 20 21
Input                    in14                     0 1 in14
Input                    in15                     0 1 in15
Input                    in16                     0 1 in16
Input                    in17                     0 1 in17
Split                    splitncnn_4              1 2 in17 26 27
Input                    in18                     0 1 in18
Input                    in19                     0 1 in19
Input                    in20                     0 1 in20
Input                    in21                     0 1 in21
Split                    splitncnn_5              1 2 in21 32 33
Input                    in22                     0 1 in22
Input                    in23                     0 1 in23
Input                    in24                     0 1 in24
Input                    in25                     0 1 in25
Split                    splitncnn_6              1 2 in25 38 39
Input                    in26                     0 1 in26
Input                    in27                     0 1 in27
Input                    in28                     0 1 in28
Input                    in29                     0 1 in29
Split                    splitncnn_7              1 2 in29 44 45
Input                    in30                     0 1 in30
Input                    in31                     0 1 in31
Input                    in32                     0 1 in32
Input                    in33                     0 1 in33
Split                    splitncnn_8              1 2 in33 50 51
Input                    in34                     0 1 in34
Input                    in35                     0 1 in35
Input                    in36                     0 1 in36
Input                    in37                     0 1 in37
Split                    splitncnn_9              1 2 in37 56 57
Input                    in38                     0 1 in38
Input                    in39                     0 1 in39
Input                    in40                     0 1 in40
Input                    in41                     0 1 in41
Split                    splitncnn_10             1 2 in41 62 63
Input                    in42                     0 1 in42
Input                    in43                     0 1 in43
Input                    in44                     0 1 in44
Input                    in45                     0 1 in45
Split                    splitncnn_11             1 2 in45 68 69
Input                    in46                     0 1 in46
Input                    in47                     0 1 in47
Input                    in48                     0 1 in48
Input                    in49                     0 1 in49
Split                    splitncnn_12             1 2 in49 74 75
Input                    in50                     0 1 in50
Input                    in51                     0 1 in51
Input                    in52                     0 1 in52
Input                    in53                     0 1 in53
Split                    splitncnn_13             1 2 in53 80 81
Input                    in54                     0 1 in54
Input                    in55                     0 1 in55
Input                    in56                     0 1 in56
Input                    in57                     0 1 in57
Split                    splitncnn_14             1 2 in57 86 87
Input                    in58                     0 1 in58
Input                    in59                     0 1 in59
Input                    in60                     0 1 in60
Input                    in61                     0 1 in61
Split                    splitncnn_15             1 2 in61 92 93
Input                    in62                     0 1 in62
Input                    in63                     0 1 in63
Input                    in64                     0 1 in64
ExpandDims               unsqueeze_590            1 1 in0 97 -23303=1,0
Convolution              conv_115                 1 1 97 98 0=8 1=3 11=3 12=1 13=1 14=1 2=1 3=1 4=1 5=1 6=72
Split                    splitncnn_16             1 2 98 99 100
BinaryOp                 sub_0                    1 1 99 101 0=1 1=1 2=1.000000e+00
Sigmoid                  sigmoid_16               1 1 101 102
BinaryOp                 mul_1                    2 1 100 102 103 0=2
Convolution              conv_116                 1 1 103 104 0=32 1=3 11=3 12=1 13=2 14=0 2=1 3=2 4=0 5=1 6=2304
Split                    splitncnn_17             1 2 104 105 106
BinaryOp                 sub_2                    1 1 105 107 0=1 1=1 2=1.000000e+00
Sigmoid                  sigmoid_17               1 1 107 108
BinaryOp                 mul_3                    2 1 106 108 109 0=2
Convolution              conv_117                 1 1 109 110 0=128 1=3 11=3 12=1 13=2 14=0 2=1 3=2 4=0 5=1 6=36864
Split                    splitncnn_18             1 2 110 111 112
BinaryOp                 sub_4                    1 1 111 113 0=1 1=1 2=1.000000e+00
Sigmoid                  sigmoid_18               1 1 113 114
BinaryOp                 mul_5                    2 1 112 114 115 0=2
Permute                  permute_459              1 1 115 116 0=2
Reshape                  reshape_231              1 1 116 117 0=2432 1=-1
InnerProduct             linear_118               1 1 117 118 0=144 1=1 2=350208
Split                    splitncnn_19             1 3 118 119 120 121
BinaryOp                 mul_6                    2 1 119 120 122 0=2
Reduction                mean_426                 1 1 122 123 0=3 1=0 -23303=1,-1 4=1 5=1
BinaryOp                 add_7                    1 1 123 124 0=0 1=1 2=2.500004e-01
BinaryOp                 pow_8                    1 1 124 125 0=6 1=1 2=-5.000000e-01
BinaryOp                 mul_9                    2 1 121 125 126 0=2
Crop                     slice_248                1 1 126 127 -23310=1,-1 -23311=1,0 -23309=1,1
Slice                    tensor_split_0           1 2 127 128 129 -23300=2,8,-233 1=0
Concat                   cat_0                    2 1 129 128 130 0=0
Split                    splitncnn_20             1 2 130 131 132
InnerProduct             linear_119               1 1 132 133 0=576 1=1 2=82944
Split                    splitncnn_21             1 2 133 134 135
BinaryOp                 sub_10                   1 1 134 136 0=1 1=1 2=1.000000e+00
Sigmoid                  sigmoid_19               1 1 136 137
BinaryOp                 mul_11                   2 1 135 137 138 0=2
InnerProduct             linear_120               1 1 138 139 0=144 1=1 2=82944
BinaryOp                 add_12                   2 1 131 139 140 0=0
Split                    splitncnn_22             1 2 140 141 142
Slice                    tensor_split_1           1 2 141 143 144 -23300=2,2,-233 1=0
Split                    splitncnn_24             1 3 144 145 146 147
Split                    splitncnn_23             1 2 143 148 149
Concat                   cat_1                    2 1 148 145 150 0=0
Concat                   cat_2                    3 1 2 149 146 151 0=0
InnerProduct             linear_122               1 1 151 152 0=288 1=1 2=41472
Slice                    chunk_0                  1 2 152 153 154 -23300=2,-233,-233 1=1
InnerProduct             linear_121               1 1 150 155 0=144 1=1 2=20736
Slice                    tensor_split_2           1 2 153 156 157 -23300=2,34,-233 1=0
Concat                   cat_3                    3 1 156 in2 157 158 0=0
Split                    splitncnn_25             1 2 158 159 160
Slice                    tensor_split_3           1 2 154 161 162 -23300=2,34,-233 1=0
Concat                   cat_4                    3 1 161 in3 162 163 0=0
Split                    splitncnn_26             1 2 163 164 165
Reshape                  view_346                 1 1 155 166 0=36 1=4 2=10
Permute                  permute_461              1 1 166 167 0=2
BinaryOp                 mul_13                   1 1 167 168 0=2 1=1 2=1.666667e-01
Reshape                  view_347                 1 1 160 169 0=36 1=4 2=50
Reshape                  view_348                 1 1 165 170 0=36 1=4 2=50
Permute                  permute_462              1 1 169 171 0=2
MatMul                   matmultransb_0           2 1 168 171 172 0=1
Softmax                  softmax_67               1 1 172 173 0=-1 1=1
Permute                  permute_464              1 1 170 174 0=2
MatMul                   bmm_395                  2 1 173 174 175
Permute                  permute_465              1 1 175 176 0=2
Reshape                  reshape_232              1 1 176 177 0=144 1=-1
ExpandDims               unsqueeze_591            1 1 177 178
InnerProduct             linear_123               1 1 178 179 0=144 1=1 2=20736
BinaryOp                 add_14                   2 1 142 179 180 0=0
Split                    splitncnn_27             1 2 180 181 182
Slice                    tensor_split_4           1 2 181 183 184 -23300=2,2,-233 1=0
Concat                   cat_5                    2 1 184 183 185 0=0
Permute                  permute_466              1 1 185 186 0=1
Convolution1D            conv1d_83                1 1 186 187 0=288 1=1 2=1 3=1 4=0 5=1 6=41472
GLU                      glu_0                    1 1 187 188 0=0
Concat                   cat_6                    2 1 in4 188 189 0=1
Split                    splitncnn_28             1 2 189 190 191
ConvolutionDepthWise1D   convdw1d_607             1 1 191 192 0=144 1=31 2=1 3=1 4=0 5=1 6=4464 7=144
Split                    splitncnn_29             1 2 192 193 194
BinaryOp                 sub_15                   1 1 193 195 0=1 1=1 2=1.000000e+00
Sigmoid                  sigmoid_20               1 1 195 196
BinaryOp                 mul_16                   2 1 194 196 197 0=2
Convolution1D            conv1d_84                1 1 197 198 0=144 1=1 2=1 3=1 4=0 5=1 6=20736
Slice                    tensor_split_5           1 2 198 199 200 -23300=2,8,-233 1=1
Permute                  permute_468              1 1 199 201 0=1
Permute                  permute_467              1 1 200 202 0=1
Concat                   cat_7                    2 1 202 201 203 0=0
BinaryOp                 add_17                   2 1 182 203 204 0=0
Split                    splitncnn_30             1 2 204 205 206
InnerProduct             linear_124               1 1 206 207 0=576 1=1 2=82944
Split                    splitncnn_31             1 2 207 208 209
BinaryOp                 sub_18                   1 1 208 210 0=1 1=1 2=1.000000e+00
Sigmoid                  sigmoid_21               1 1 210 211
BinaryOp                 mul_19                   2 1 209 211 212 0=2
InnerProduct             linear_125               1 1 212 213 0=144 1=1 2=82944
BinaryOp                 add_20                   2 1 205 213 214 0=0
Split                    splitncnn_32             1 3 214 215 216 217
BinaryOp                 mul_21                   2 1 215 216 218 0=2
Reduction                mean_428                 1 1 218 219 0=3 1=0 -23303=1,-1 4=1 5=1
BinaryOp                 add_22                   1 1 219 220 0=0 1=1 2=9.635315e-01
BinaryOp                 pow_23                   1 1 220 221 0=6 1=1 2=-5.000000e-01
BinaryOp                 mul_24                   2 1 217 221 222 0=2
Slice                    tensor_split_6           1 2 222 223 224 -23300=2,2,-233 1=0
Concat                   cat_8                    2 1 223 224 225 0=0
Split                    splitncnn_33             1 2 225 226 227
InnerProduct             linear_126               1 1 227 228 0=576 1=1 2=82944
Split                    splitncnn_34             1 2 228 229 230
BinaryOp                 sub_25                   1 1 229 231 0=1 1=1 2=1.000000e+00
Sigmoid                  sigmoid_22               1 1 231 232
BinaryOp                 mul_26                   2 1 230 232 233 0=2
InnerProduct             linear_127               1 1 233 234 0=144 1=1 2=82944
BinaryOp                 add_27                   2 1 226 234 235 0=0
Split                    splitncnn_35             1 2 235 236 237
Slice                    tensor_split_7           1 2 236 238 239 -23300=2,2,-233 1=0
Split                    splitncnn_37             1 3 239 240 241 242
Split                    splitncnn_36             1 2 238 243 244
Concat                   cat_9                    2 1 243 240 245 0=0
Concat                   cat_10                   3 1 8 244 241 246 0=0
InnerProduct             linear_129               1 1 246 247 0=288 1=1 2=41472
Slice                    chunk_1                  1 2 247 248 249 -23300=2,-233,-233 1=1
InnerProduct             linear_128               1 1 245 250 0=144 1=1 2=20736
Slice                    tensor_split_8           1 2 248 251 252 -23300=2,34,-233 1=0
Concat                   cat_11                   3 1 251 in6 252 253 0=0
Split                    splitncnn_38             1 2 253 254 255
Slice                    tensor_split_9           1 2 249 256 257 -23300=2,34,-233 1=0
Concat                   cat_12                   3 1 256 in7 257 258 0=0
Split                    splitncnn_39             1 2 258 259 260
Reshape                  view_349                 1 1 250 261 0=36 1=4 2=10
Permute                  permute_469              1 1 261 262 0=2
BinaryOp                 mul_28                   1 1 262 263 0=2 1=1 2=1.666667e-01
Reshape                  view_350                 1 1 255 264 0=36 1=4 2=50
Reshape                  view_351                 1 1 260 265 0=36 1=4 2=50
Permute                  permute_470              1 1 264 266 0=2
MatMul                   matmultransb_1           2 1 263 266 267 0=1
Softmax                  softmax_68               1 1 267 268 0=-1 1=1
Permute                  permute_472              1 1 265 269 0=2
MatMul                   bmm_397                  2 1 268 269 270
Permute                  permute_473              1 1 270 271 0=2
Reshape                  reshape_233              1 1 271 272 0=144 1=-1
ExpandDims               unsqueeze_592            1 1 272 273
InnerProduct             linear_130               1 1 273 274 0=144 1=1 2=20736
BinaryOp                 add_29                   2 1 237 274 275 0=0
Split                    splitncnn_40             1 2 275 276 277
Slice                    tensor_split_10          1 2 276 278 279 -23300=2,2,-233 1=0
Concat                   cat_13                   2 1 279 278 280 0=0
Permute                  permute_474              1 1 280 281 0=1
Convolution1D            conv1d_85                1 1 281 282 0=288 1=1 2=1 3=1 4=0 5=1 6=41472
GLU                      glu_1                    1 1 282 283 0=0
Concat                   cat_14                   2 1 in8 283 284 0=1
Split                    splitncnn_41             1 2 284 285 286
ConvolutionDepthWise1D   convdw1d_608             1 1 286 287 0=144 1=31 2=1 3=1 4=0 5=1 6=4464 7=144
Split                    splitncnn_42             1 2 287 288 289
BinaryOp                 sub_30                   1 1 288 290 0=1 1=1 2=1.000000e+00
Sigmoid                  sigmoid_23               1 1 290 291
BinaryOp                 mul_31                   2 1 289 291 292 0=2
Convolution1D            conv1d_86                1 1 292 293 0=144 1=1 2=1 3=1 4=0 5=1 6=20736
Slice                    tensor_split_11          1 2 293 294 295 -23300=2,8,-233 1=1
Permute                  permute_476              1 1 294 296 0=1
Permute                  permute_475              1 1 295 297 0=1
Concat                   cat_15                   2 1 297 296 298 0=0
BinaryOp                 add_32                   2 1 277 298 299 0=0
Split                    splitncnn_43             1 2 299 300 301
InnerProduct             linear_131               1 1 301 302 0=576 1=1 2=82944
Split                    splitncnn_44             1 2 302 303 304
BinaryOp                 sub_33                   1 1 303 305 0=1 1=1 2=1.000000e+00
Sigmoid                  sigmoid_24               1 1 305 306
BinaryOp                 mul_34                   2 1 304 306 307 0=2
InnerProduct             linear_132               1 1 307 308 0=144 1=1 2=82944
BinaryOp                 add_35                   2 1 300 308 309 0=0
Split                    splitncnn_45             1 3 309 310 311 312
BinaryOp                 mul_36                   2 1 310 311 313 0=2
Reduction                mean_430                 1 1 313 314 0=3 1=0 -23303=1,-1 4=1 5=1
BinaryOp                 add_37                   1 1 314 315 0=0 1=1 2=1.013315e+00
BinaryOp                 pow_38                   1 1 315 316 0=6 1=1 2=-5.000000e-01
BinaryOp                 mul_39                   2 1 312 316 317 0=2
Slice                    tensor_split_12          1 2 317 318 319 -23300=2,2,-233 1=0
Concat                   cat_16                   2 1 318 319 320 0=0
Split                    splitncnn_46             1 2 320 321 322
InnerProduct             linear_133               1 1 322 323 0=576 1=1 2=82944
Split                    splitncnn_47             1 2 323 324 325
BinaryOp                 sub_40                   1 1 324 326 0=1 1=1 2=1.000000e+00
Sigmoid                  sigmoid_25               1 1 326 327
BinaryOp                 mul_41                   2 1 325 327 328 0=2
InnerProduct             linear_134               1 1 328 329 0=144 1=1 2=82944
BinaryOp                 add_42                   2 1 321 329 330 0=0
Split                    splitncnn_48             1 2 330 331 332
Slice                    tensor_split_13          1 2 331 333 334 -23300=2,2,-233 1=0
Split                    splitncnn_50             1 3 334 335 336 337
Split                    splitncnn_49             1 2 333 338 339
Concat                   cat_17                   2 1 338 335 340 0=0
Concat                   cat_18                   3 1 14 339 336 341 0=0
InnerProduct             linear_136               1 1 341 342 0=288 1=1 2=41472
Slice                    chunk_2                  1 2 342 343 344 -23300=2,-233,-233 1=1
InnerProduct             linear_135               1 1 340 345 0=144 1=1 2=20736
Slice                    tensor_split_14          1 2 343 346 347 -23300=2,34,-233 1=0
Concat                   cat_19                   3 1 346 in10 347 348 0=0
Split                    splitncnn_51             1 2 348 349 350
Slice                    tensor_split_15          1 2 344 351 352 -23300=2,34,-233 1=0
Concat                   cat_20                   3 1 351 in11 352 353 0=0
Split                    splitncnn_52             1 2 353 354 355
Reshape                  view_352                 1 1 345 356 0=36 1=4 2=10
Permute                  permute_477              1 1 356 357 0=2
BinaryOp                 mul_43                   1 1 357 358 0=2 1=1 2=1.666667e-01
Reshape                  view_353                 1 1 350 359 0=36 1=4 2=50
Reshape                  view_354                 1 1 355 360 0=36 1=4 2=50
Permute                  permute_478              1 1 359 361 0=2
MatMul                   matmultransb_2           2 1 358 361 362 0=1
Softmax                  softmax_69               1 1 362 363 0=-1 1=1
Permute                  permute_480              1 1 360 364 0=2
MatMul                   bmm_399                  2 1 363 364 365
Permute                  permute_481              1 1 365 366 0=2
Reshape                  reshape_234              1 1 366 367 0=144 1=-1
ExpandDims               unsqueeze_593            1 1 367 368
InnerProduct             linear_137               1 1 368 369 0=144 1=1 2=20736
BinaryOp                 add_44                   2 1 332 369 370 0=0
Split                    splitncnn_53             1 2 370 371 372
Slice                    tensor_split_16          1 2 371 373 374 -23300=2,2,-233 1=0
Concat                   cat_21                   2 1 374 373 375 0=0
Permute                  permute_482              1 1 375 376 0=1
Convolution1D            conv1d_87                1 1 376 377 0=288 1=1 2=1 3=1 4=0 5=1 6=41472
GLU                      glu_2                    1 1 377 378 0=0
Concat                   cat_22                   2 1 in12 378 379 0=1
Split                    splitncnn_54             1 2 379 380 381
ConvolutionDepthWise1D   convdw1d_609             1 1 381 382 0=144 1=31 2=1 3=1 4=0 5=1 6=4464 7=144
Split                    splitncnn_55             1 2 382 383 384
BinaryOp                 sub_45                   1 1 383 385 0=1 1=1 2=1.000000e+00
Sigmoid                  sigmoid_26               1 1 385 386
BinaryOp                 mul_46                   2 1 384 386 387 0=2
Convolution1D            conv1d_88                1 1 387 388 0=144 1=1 2=1 3=1 4=0 5=1 6=20736
Slice                    tensor_split_17          1 2 388 389 390 -23300=2,8,-233 1=1
Permute                  permute_484              1 1 389 391 0=1
Permute                  permute_483              1 1 390 392 0=1
Concat                   cat_23                   2 1 392 391 393 0=0
BinaryOp                 add_47                   2 1 372 393 394 0=0
Split                    splitncnn_56             1 2 394 395 396
InnerProduct             linear_138               1 1 396 397 0=576 1=1 2=82944
Split                    splitncnn_57             1 2 397 398 399
BinaryOp                 sub_48                   1 1 398 400 0=1 1=1 2=1.000000e+00
Sigmoid                  sigmoid_27               1 1 400 401
BinaryOp                 mul_49                   2 1 399 401 402 0=2
InnerProduct             linear_139               1 1 402 403 0=144 1=1 2=82944
BinaryOp                 add_50                   2 1 395 403 404 0=0
Split                    splitncnn_58             1 3 404 405 406 407
BinaryOp                 mul_51                   2 1 405 406 408 0=2
Reduction                mean_432                 1 1 408 409 0=3 1=0 -23303=1,-1 4=1 5=1
BinaryOp                 add_52                   1 1 409 410 0=0 1=1 2=1.069920e+00
BinaryOp                 pow_53                   1 1 410 411 0=6 1=1 2=-5.000000e-01
BinaryOp                 mul_54                   2 1 407 411 412 0=2
Slice                    tensor_split_18          1 2 412 413 414 -23300=2,2,-233 1=0
Concat                   cat_24                   2 1 413 414 415 0=0
Split                    splitncnn_59             1 2 415 416 417
InnerProduct             linear_140               1 1 417 418 0=576 1=1 2=82944
Split                    splitncnn_60             1 2 418 419 420
BinaryOp                 sub_55                   1 1 419 421 0=1 1=1 2=1.000000e+00
Sigmoid                  sigmoid_28               1 1 421 422
BinaryOp                 mul_56                   2 1 420 422 423 0=2
InnerProduct             linear_141               1 1 423 424 0=144 1=1 2=82944
BinaryOp                 add_57                   2 1 416 424 425 0=0
Split                    splitncnn_61             1 2 425 426 427
Slice                    tensor_split_19          1 2 426 428 429 -23300=2,2,-233 1=0
Split                    splitncnn_63             1 3 429 430 431 432
Split                    splitncnn_62             1 2 428 433 434
Concat                   cat_25                   2 1 433 430 435 0=0
Concat                   cat_26                   3 1 20 434 431 436 0=0
InnerProduct             linear_143               1 1 436 437 0=288 1=1 2=41472
Slice                    chunk_3                  1 2 437 438 439 -23300=2,-233,-233 1=1
InnerProduct             linear_142               1 1 435 440 0=144 1=1 2=20736
Slice                    tensor_split_20          1 2 438 441 442 -23300=2,34,-233 1=0
Concat                   cat_27                   3 1 441 in14 442 443 0=0
Split                    splitncnn_64             1 2 443 444 445
Slice                    tensor_split_21          1 2 439 446 447 -23300=2,34,-233 1=0
Concat                   cat_28                   3 1 446 in15 447 448 0=0
Split                    splitncnn_65             1 2 448 449 450
Reshape                  view_355                 1 1 440 451 0=36 1=4 2=10
Permute                  permute_485              1 1 451 452 0=2
BinaryOp                 mul_58                   1 1 452 453 0=2 1=1 2=1.666667e-01
Reshape                  view_356                 1 1 445 454 0=36 1=4 2=50
Reshape                  view_357                 1 1 450 455 0=36 1=4 2=50
Permute                  permute_486              1 1 454 456 0=2
MatMul                   matmultransb_3           2 1 453 456 457 0=1
Softmax                  softmax_70               1 1 457 458 0=-1 1=1
Permute                  permute_488              1 1 455 459 0=2
MatMul                   bmm_401                  2 1 458 459 460
Permute                  permute_489              1 1 460 461 0=2
Reshape                  reshape_235              1 1 461 462 0=144 1=-1
ExpandDims               unsqueeze_594            1 1 462 463
InnerProduct             linear_144               1 1 463 464 0=144 1=1 2=20736
BinaryOp                 add_59                   2 1 427 464 465 0=0
Split                    splitncnn_66             1 2 465 466 467
Slice                    tensor_split_22          1 2 466 468 469 -23300=2,2,-233 1=0
Concat                   cat_29                   2 1 469 468 470 0=0
Permute                  permute_490              1 1 470 471 0=1
Convolution1D            conv1d_89                1 1 471 472 0=288 1=1 2=1 3=1 4=0 5=1 6=41472
GLU                      glu_3                    1 1 472 473 0=0
Concat                   cat_30                   2 1 in16 473 474 0=1
Split                    splitncnn_67             1 2 474 475 476
ConvolutionDepthWise1D   convdw1d_610             1 1 476 477 0=144 1=31 2=1 3=1 4=0 5=1 6=4464 7=144
Split                    splitncnn_68             1 2 477 478 479
BinaryOp                 sub_60                   1 1 478 480 0=1 1=1 2=1.000000e+00
Sigmoid                  sigmoid_29               1 1 480 481
BinaryOp                 mul_61                   2 1 479 481 482 0=2
Convolution1D            conv1d_90                1 1 482 483 0=144 1=1 2=1 3=1 4=0 5=1 6=20736
Slice                    tensor_split_23          1 2 483 484 485 -23300=2,8,-233 1=1
Permute                  permute_492              1 1 484 486 0=1
Permute                  permute_491              1 1 485 487 0=1
Concat                   cat_31                   2 1 487 486 488 0=0
BinaryOp                 add_62                   2 1 467 488 489 0=0
Split                    splitncnn_69             1 2 489 490 491
InnerProduct             linear_145               1 1 491 492 0=576 1=1 2=82944
Split                    splitncnn_70             1 2 492 493 494
BinaryOp                 sub_63                   1 1 493 495 0=1 1=1 2=1.000000e+00
Sigmoid                  sigmoid_30               1 1 495 496
BinaryOp                 mul_64                   2 1 494 496 497 0=2
InnerProduct             linear_146               1 1 497 498 0=144 1=1 2=82944
BinaryOp                 add_65                   2 1 490 498 499 0=0
Split                    splitncnn_71             1 3 499 500 501 502
BinaryOp                 mul_66                   2 1 500 501 503 0=2
Reduction                mean_434                 1 1 503 504 0=3 1=0 -23303=1,-1 4=1 5=1
BinaryOp                 add_67                   1 1 504 505 0=0 1=1 2=1.152986e+00
BinaryOp                 pow_68                   1 1 505 506 0=6 1=1 2=-5.000000e-01
BinaryOp                 mul_69                   2 1 502 506 507 0=2
Slice                    tensor_split_24          1 2 507 508 509 -23300=2,2,-233 1=0
Concat                   cat_32                   2 1 508 509 510 0=0
Split                    splitncnn_72             1 2 510 511 512
InnerProduct             linear_147               1 1 512 513 0=576 1=1 2=82944
Split                    splitncnn_73             1 2 513 514 515
BinaryOp                 sub_70                   1 1 514 516 0=1 1=1 2=1.000000e+00
Sigmoid                  sigmoid_31               1 1 516 517
BinaryOp                 mul_71                   2 1 515 517 518 0=2
InnerProduct             linear_148               1 1 518 519 0=144 1=1 2=82944
BinaryOp                 add_72                   2 1 511 519 520 0=0
Split                    splitncnn_74             1 2 520 521 522
Slice                    tensor_split_25          1 2 521 523 524 -23300=2,2,-233 1=0
Split                    splitncnn_76             1 3 524 525 526 527
Split                    splitncnn_75             1 2 523 528 529
Concat                   cat_33                   2 1 528 525 530 0=0
Concat                   cat_34                   3 1 26 529 526 531 0=0
InnerProduct             linear_150               1 1 531 532 0=288 1=1 2=41472
Slice                    chunk_4                  1 2 532 533 534 -23300=2,-233,-233 1=1
InnerProduct             linear_149               1 1 530 535 0=144 1=1 2=20736
Slice                    tensor_split_26          1 2 533 536 537 -23300=2,34,-233 1=0
Concat                   cat_35                   3 1 536 in18 537 538 0=0
Split                    splitncnn_77             1 2 538 539 540
Slice                    tensor_split_27          1 2 534 541 542 -23300=2,34,-233 1=0
Concat                   cat_36                   3 1 541 in19 542 543 0=0
Split                    splitncnn_78             1 2 543 544 545
Reshape                  view_358                 1 1 535 546 0=36 1=4 2=10
Permute                  permute_493              1 1 546 547 0=2
BinaryOp                 mul_73                   1 1 547 548 0=2 1=1 2=1.666667e-01
Reshape                  view_359                 1 1 540 549 0=36 1=4 2=50
Reshape                  view_360                 1 1 545 550 0=36 1=4 2=50
Permute                  permute_494              1 1 549 551 0=2
MatMul                   matmultransb_4           2 1 548 551 552 0=1
Softmax                  softmax_71               1 1 552 553 0=-1 1=1
Permute                  permute_496              1 1 550 554 0=2
MatMul                   bmm_403                  2 1 553 554 555
Permute                  permute_497              1 1 555 556 0=2
Reshape                  reshape_236              1 1 556 557 0=144 1=-1
ExpandDims               unsqueeze_595            1 1 557 558
InnerProduct             linear_151               1 1 558 559 0=144 1=1 2=20736
BinaryOp                 add_74                   2 1 522 559 560 0=0
Split                    splitncnn_79             1 2 560 561 562
Slice                    tensor_split_28          1 2 561 563 564 -23300=2,2,-233 1=0
Concat                   cat_37                   2 1 564 563 565 0=0
Permute                  permute_498              1 1 565 566 0=1
Convolution1D            conv1d_91                1 1 566 567 0=288 1=1 2=1 3=1 4=0 5=1 6=41472
GLU                      glu_4                    1 1 567 568 0=0
Concat                   cat_38                   2 1 in20 568 569 0=1
Split                    splitncnn_80             1 2 569 570 571
ConvolutionDepthWise1D   convdw1d_611             1 1 571 572 0=144 1=31 2=1 3=1 4=0 5=1 6=4464 7=144
Split                    splitncnn_81             1 2 572 573 574
BinaryOp                 sub_75                   1 1 573 575 0=1 1=1 2=1.000000e+00
Sigmoid                  sigmoid_32               1 1 575 576
BinaryOp                 mul_76                   2 1 574 576 577 0=2
Convolution1D            conv1d_92                1 1 577 578 0=144 1=1 2=1 3=1 4=0 5=1 6=20736
Slice                    tensor_split_29          1 2 578 579 580 -23300=2,8,-233 1=1
Permute                  permute_500              1 1 579 581 0=1
Permute                  permute_499              1 1 580 582 0=1
Concat                   cat_39                   2 1 582 581 583 0=0
BinaryOp                 add_77                   2 1 562 583 584 0=0
Split                    splitncnn_82             1 2 584 585 586
InnerProduct             linear_152               1 1 586 587 0=576 1=1 2=82944
Split                    splitncnn_83             1 2 587 588 589
BinaryOp                 sub_78                   1 1 588 590 0=1 1=1 2=1.000000e+00
Sigmoid                  sigmoid_33               1 1 590 591
BinaryOp                 mul_79                   2 1 589 591 592 0=2
InnerProduct             linear_153               1 1 592 593 0=144 1=1 2=82944
BinaryOp                 add_80                   2 1 585 593 594 0=0
Split                    splitncnn_84             1 3 594 595 596 597
BinaryOp                 mul_81                   2 1 595 596 598 0=2
Reduction                mean_436                 1 1 598 599 0=3 1=0 -23303=1,-1 4=1 5=1
BinaryOp                 add_82                   1 1 599 600 0=0 1=1 2=1.284874e+00
BinaryOp                 pow_83                   1 1 600 601 0=6 1=1 2=-5.000000e-01
BinaryOp                 mul_84                   2 1 597 601 602 0=2
Slice                    tensor_split_30          1 2 602 603 604 -23300=2,2,-233 1=0
Concat                   cat_40                   2 1 603 604 605 0=0
Split                    splitncnn_85             1 2 605 606 607
InnerProduct             linear_154               1 1 607 608 0=576 1=1 2=82944
Split                    splitncnn_86             1 2 608 609 610
BinaryOp                 sub_85                   1 1 609 611 0=1 1=1 2=1.000000e+00
Sigmoid                  sigmoid_34               1 1 611 612
BinaryOp                 mul_86                   2 1 610 612 613 0=2
InnerProduct             linear_155               1 1 613 614 0=144 1=1 2=82944
BinaryOp                 add_87                   2 1 606 614 615 0=0
Split                    splitncnn_87             1 2 615 616 617
Slice                    tensor_split_31          1 2 616 618 619 -23300=2,2,-233 1=0
Split                    splitncnn_89             1 3 619 620 621 622
Split                    splitncnn_88             1 2 618 623 624
Concat                   cat_41                   2 1 623 620 625 0=0
Concat                   cat_42                   3 1 32 624 621 626 0=0
InnerProduct             linear_157               1 1 626 627 0=288 1=1 2=41472
Slice                    chunk_5                  1 2 627 628 629 -23300=2,-233,-233 1=1
InnerProduct             linear_156               1 1 625 630 0=144 1=1 2=20736
Slice                    tensor_split_32          1 2 628 631 632 -23300=2,34,-233 1=0
Concat                   cat_43                   3 1 631 in22 632 633 0=0
Split                    splitncnn_90             1 2 633 634 635
Slice                    tensor_split_33          1 2 629 636 637 -23300=2,34,-233 1=0
Concat                   cat_44                   3 1 636 in23 637 638 0=0
Split                    splitncnn_91             1 2 638 639 640
Reshape                  view_361                 1 1 630 641 0=36 1=4 2=10
Permute                  permute_501              1 1 641 642 0=2
BinaryOp                 mul_88                   1 1 642 643 0=2 1=1 2=1.666667e-01
Reshape                  view_362                 1 1 635 644 0=36 1=4 2=50
Reshape                  view_363                 1 1 640 645 0=36 1=4 2=50
Permute                  permute_502              1 1 644 646 0=2
MatMul                   matmultransb_5           2 1 643 646 647 0=1
Softmax                  softmax_72               1 1 647 648 0=-1 1=1
Permute                  permute_504              1 1 645 649 0=2
MatMul                   bmm_405                  2 1 648 649 650
Permute                  permute_505              1 1 650 651 0=2
Reshape                  reshape_237              1 1 651 652 0=144 1=-1
ExpandDims               unsqueeze_596            1 1 652 653
InnerProduct             linear_158               1 1 653 654 0=144 1=1 2=20736
BinaryOp                 add_89                   2 1 617 654 655 0=0
Split                    splitncnn_92             1 2 655 656 657
Slice                    tensor_split_34          1 2 656 658 659 -23300=2,2,-233 1=0
Concat                   cat_45                   2 1 659 658 660 0=0
Permute                  permute_506              1 1 660 661 0=1
Convolution1D            conv1d_93                1 1 661 662 0=288 1=1 2=1 3=1 4=0 5=1 6=41472
GLU                      glu_5                    1 1 662 663 0=0
Concat                   cat_46                   2 1 in24 663 664 0=1
Split                    splitncnn_93             1 2 664 665 666
ConvolutionDepthWise1D   convdw1d_612             1 1 666 667 0=144 1=31 2=1 3=1 4=0 5=1 6=4464 7=144
Split                    splitncnn_94             1 2 667 668 669
BinaryOp                 sub_90                   1 1 668 670 0=1 1=1 2=1.000000e+00
Sigmoid                  sigmoid_35               1 1 670 671
BinaryOp                 mul_91                   2 1 669 671 672 0=2
Convolution1D            conv1d_94                1 1 672 673 0=144 1=1 2=1 3=1 4=0 5=1 6=20736
Slice                    tensor_split_35          1 2 673 674 675 -23300=2,8,-233 1=1
Permute                  permute_508              1 1 674 676 0=1
Permute                  permute_507              1 1 675 677 0=1
Concat                   cat_47                   2 1 677 676 678 0=0
BinaryOp                 add_92                   2 1 657 678 679 0=0
Split                    splitncnn_95             1 2 679 680 681
InnerProduct             linear_159               1 1 681 682 0=576 1=1 2=82944
Split                    splitncnn_96             1 2 682 683 684
BinaryOp                 sub_93                   1 1 683 685 0=1 1=1 2=1.000000e+00
Sigmoid                  sigmoid_36               1 1 685 686
BinaryOp                 mul_94                   2 1 684 686 687 0=2
InnerProduct             linear_160               1 1 687 688 0=144 1=1 2=82944
BinaryOp                 add_95                   2 1 680 688 689 0=0
Split                    splitncnn_97             1 3 689 690 691 692
BinaryOp                 mul_96                   2 1 690 691 693 0=2
Reduction                mean_438                 1 1 693 694 0=3 1=0 -23303=1,-1 4=1 5=1
BinaryOp                 add_97                   1 1 694 695 0=0 1=1 2=1.493289e+00
BinaryOp                 pow_98                   1 1 695 696 0=6 1=1 2=-5.000000e-01
BinaryOp                 mul_99                   2 1 692 696 697 0=2
Slice                    tensor_split_36          1 2 697 698 699 -23300=2,2,-233 1=0
Concat                   cat_48                   2 1 698 699 700 0=0
Split                    splitncnn_98             1 2 700 701 702
InnerProduct             linear_161               1 1 702 703 0=576 1=1 2=82944
Split                    splitncnn_99             1 2 703 704 705
BinaryOp                 sub_100                  1 1 704 706 0=1 1=1 2=1.000000e+00
Sigmoid                  sigmoid_37               1 1 706 707
BinaryOp                 mul_101                  2 1 705 707 708 0=2
InnerProduct             linear_162               1 1 708 709 0=144 1=1 2=82944
BinaryOp                 add_102                  2 1 701 709 710 0=0
Split                    splitncnn_100            1 2 710 711 712
Slice                    tensor_split_37          1 2 711 713 714 -23300=2,2,-233 1=0
Split                    splitncnn_102            1 3 714 715 716 717
Split                    splitncnn_101            1 2 713 718 719
Concat                   cat_49                   2 1 718 715 720 0=0
Concat                   cat_50                   3 1 38 719 716 721 0=0
InnerProduct             linear_164               1 1 721 722 0=288 1=1 2=41472
Slice                    chunk_6                  1 2 722 723 724 -23300=2,-233,-233 1=1
InnerProduct             linear_163               1 1 720 725 0=144 1=1 2=20736
Slice                    tensor_split_38          1 2 723 726 727 -23300=2,34,-233 1=0
Concat                   cat_51                   3 1 726 in26 727 728 0=0
Split                    splitncnn_103            1 2 728 729 730
Slice                    tensor_split_39          1 2 724 731 732 -23300=2,34,-233 1=0
Concat                   cat_52                   3 1 731 in27 732 733 0=0
Split                    splitncnn_104            1 2 733 734 735
Reshape                  view_364                 1 1 725 736 0=36 1=4 2=10
Permute                  permute_509              1 1 736 737 0=2
BinaryOp                 mul_103                  1 1 737 738 0=2 1=1 2=1.666667e-01
Reshape                  view_365                 1 1 730 739 0=36 1=4 2=50
Reshape                  view_366                 1 1 735 740 0=36 1=4 2=50
Permute                  permute_510              1 1 739 741 0=2
MatMul                   matmultransb_6           2 1 738 741 742 0=1
Softmax                  softmax_73               1 1 742 743 0=-1 1=1
Permute                  permute_512              1 1 740 744 0=2
MatMul                   bmm_407                  2 1 743 744 745
Permute                  permute_513              1 1 745 746 0=2
Reshape                  reshape_238              1 1 746 747 0=144 1=-1
ExpandDims               unsqueeze_597            1 1 747 748
InnerProduct             linear_165               1 1 748 749 0=144 1=1 2=20736
BinaryOp                 add_104                  2 1 712 749 750 0=0
Split                    splitncnn_105            1 2 750 751 752
Slice                    tensor_split_40          1 2 751 753 754 -23300=2,2,-233 1=0
Concat                   cat_53                   2 1 754 753 755 0=0
Permute                  permute_514              1 1 755 756 0=1
Convolution1D            conv1d_95                1 1 756 757 0=288 1=1 2=1 3=1 4=0 5=1 6=41472
GLU                      glu_6                    1 1 757 758 0=0
Concat                   cat_54                   2 1 in28 758 759 0=1
Split                    splitncnn_106            1 2 759 760 761
ConvolutionDepthWise1D   convdw1d_613             1 1 761 762 0=144 1=31 2=1 3=1 4=0 5=1 6=4464 7=144
Split                    splitncnn_107            1 2 762 763 764
BinaryOp                 sub_105                  1 1 763 765 0=1 1=1 2=1.000000e+00
Sigmoid                  sigmoid_38               1 1 765 766
BinaryOp                 mul_106                  2 1 764 766 767 0=2
Convolution1D            conv1d_96                1 1 767 768 0=144 1=1 2=1 3=1 4=0 5=1 6=20736
Slice                    tensor_split_41          1 2 768 769 770 -23300=2,8,-233 1=1
Permute                  permute_516              1 1 769 771 0=1
Permute                  permute_515              1 1 770 772 0=1
Concat                   cat_55                   2 1 772 771 773 0=0
BinaryOp                 add_107                  2 1 752 773 774 0=0
Split                    splitncnn_108            1 2 774 775 776
InnerProduct             linear_166               1 1 776 777 0=576 1=1 2=82944
Split                    splitncnn_109            1 2 777 778 779
BinaryOp                 sub_108                  1 1 778 780 0=1 1=1 2=1.000000e+00
Sigmoid                  sigmoid_39               1 1 780 781
BinaryOp                 mul_109                  2 1 779 781 782 0=2
InnerProduct             linear_167               1 1 782 783 0=144 1=1 2=82944
BinaryOp                 add_110                  2 1 775 783 784 0=0
Split                    splitncnn_110            1 3 784 785 786 787
BinaryOp                 mul_111                  2 1 785 786 788 0=2
Reduction                mean_440                 1 1 788 789 0=3 1=0 -23303=1,-1 4=1 5=1
BinaryOp                 add_112                  1 1 789 790 0=0 1=1 2=1.652225e+00
BinaryOp                 pow_113                  1 1 790 791 0=6 1=1 2=-5.000000e-01
BinaryOp                 mul_114                  2 1 787 791 792 0=2
Slice                    tensor_split_42          1 2 792 793 794 -23300=2,2,-233 1=0
Concat                   cat_56                   2 1 793 794 795 0=0
Split                    splitncnn_111            1 2 795 796 797
InnerProduct             linear_168               1 1 797 798 0=576 1=1 2=82944
Split                    splitncnn_112            1 2 798 799 800
BinaryOp                 sub_115                  1 1 799 801 0=1 1=1 2=1.000000e+00
Sigmoid                  sigmoid_40               1 1 801 802
BinaryOp                 mul_116                  2 1 800 802 803 0=2
InnerProduct             linear_169               1 1 803 804 0=144 1=1 2=82944
BinaryOp                 add_117                  2 1 796 804 805 0=0
Split                    splitncnn_113            1 2 805 806 807
Slice                    tensor_split_43          1 2 806 808 809 -23300=2,2,-233 1=0
Split                    splitncnn_115            1 3 809 810 811 812
Split                    splitncnn_114            1 2 808 813 814
Concat                   cat_57                   2 1 813 810 815 0=0
Concat                   cat_58                   3 1 44 814 811 816 0=0
InnerProduct             linear_171               1 1 816 817 0=288 1=1 2=41472
Slice                    chunk_7                  1 2 817 818 819 -23300=2,-233,-233 1=1
InnerProduct             linear_170               1 1 815 820 0=144 1=1 2=20736
Slice                    tensor_split_44          1 2 818 821 822 -23300=2,34,-233 1=0
Concat                   cat_59                   3 1 821 in30 822 823 0=0
Split                    splitncnn_116            1 2 823 824 825
Slice                    tensor_split_45          1 2 819 826 827 -23300=2,34,-233 1=0
Concat                   cat_60                   3 1 826 in31 827 828 0=0
Split                    splitncnn_117            1 2 828 829 830
Reshape                  view_367                 1 1 820 831 0=36 1=4 2=10
Permute                  permute_517              1 1 831 832 0=2
BinaryOp                 mul_118                  1 1 832 833 0=2 1=1 2=1.666667e-01
Reshape                  view_368                 1 1 825 834 0=36 1=4 2=50
Reshape                  view_369                 1 1 830 835 0=36 1=4 2=50
Permute                  permute_518              1 1 834 836 0=2
MatMul                   matmultransb_7           2 1 833 836 837 0=1
Softmax                  softmax_74               1 1 837 838 0=-1 1=1
Permute                  permute_520              1 1 835 839 0=2
MatMul                   bmm_409                  2 1 838 839 840
Permute                  permute_521              1 1 840 841 0=2
Reshape                  reshape_239              1 1 841 842 0=144 1=-1
ExpandDims               unsqueeze_598            1 1 842 843
InnerProduct             linear_172               1 1 843 844 0=144 1=1 2=20736
BinaryOp                 add_119                  2 1 807 844 845 0=0
Split                    splitncnn_118            1 2 845 846 847
Slice                    tensor_split_46          1 2 846 848 849 -23300=2,2,-233 1=0
Concat                   cat_61                   2 1 849 848 850 0=0
Permute                  permute_522              1 1 850 851 0=1
Convolution1D            conv1d_97                1 1 851 852 0=288 1=1 2=1 3=1 4=0 5=1 6=41472
GLU                      glu_7                    1 1 852 853 0=0
Concat                   cat_62                   2 1 in32 853 854 0=1
Split                    splitncnn_119            1 2 854 855 856
ConvolutionDepthWise1D   convdw1d_614             1 1 856 857 0=144 1=31 2=1 3=1 4=0 5=1 6=4464 7=144
Split                    splitncnn_120            1 2 857 858 859
BinaryOp                 sub_120                  1 1 858 860 0=1 1=1 2=1.000000e+00
Sigmoid                  sigmoid_41               1 1 860 861
BinaryOp                 mul_121                  2 1 859 861 862 0=2
Convolution1D            conv1d_98                1 1 862 863 0=144 1=1 2=1 3=1 4=0 5=1 6=20736
Slice                    tensor_split_47          1 2 863 864 865 -23300=2,8,-233 1=1
Permute                  permute_524              1 1 864 866 0=1
Permute                  permute_523              1 1 865 867 0=1
Concat                   cat_63                   2 1 867 866 868 0=0
BinaryOp                 add_122                  2 1 847 868 869 0=0
Split                    splitncnn_121            1 2 869 870 871
InnerProduct             linear_173               1 1 871 872 0=576 1=1 2=82944
Split                    splitncnn_122            1 2 872 873 874
BinaryOp                 sub_123                  1 1 873 875 0=1 1=1 2=1.000000e+00
Sigmoid                  sigmoid_42               1 1 875 876
BinaryOp                 mul_124                  2 1 874 876 877 0=2
InnerProduct             linear_174               1 1 877 878 0=144 1=1 2=82944
BinaryOp                 add_125                  2 1 870 878 879 0=0
Split                    splitncnn_123            1 3 879 880 881 882
BinaryOp                 mul_126                  2 1 880 881 883 0=2
Reduction                mean_442                 1 1 883 884 0=3 1=0 -23303=1,-1 4=1 5=1
BinaryOp                 add_127                  1 1 884 885 0=0 1=1 2=1.899739e+00
BinaryOp                 pow_128                  1 1 885 886 0=6 1=1 2=-5.000000e-01
BinaryOp                 mul_129                  2 1 882 886 887 0=2
Slice                    tensor_split_48          1 2 887 888 889 -23300=2,2,-233 1=0
Concat                   cat_64                   2 1 888 889 890 0=0
Split                    splitncnn_124            1 2 890 891 892
InnerProduct             linear_175               1 1 892 893 0=576 1=1 2=82944
Split                    splitncnn_125            1 2 893 894 895
BinaryOp                 sub_130                  1 1 894 896 0=1 1=1 2=1.000000e+00
Sigmoid                  sigmoid_43               1 1 896 897
BinaryOp                 mul_131                  2 1 895 897 898 0=2
InnerProduct             linear_176               1 1 898 899 0=144 1=1 2=82944
BinaryOp                 add_132                  2 1 891 899 900 0=0
Split                    splitncnn_126            1 2 900 901 902
Slice                    tensor_split_49          1 2 901 903 904 -23300=2,2,-233 1=0
Split                    splitncnn_128            1 3 904 905 906 907
Split                    splitncnn_127            1 2 903 908 909
Concat                   cat_65                   2 1 908 905 910 0=0
Concat                   cat_66                   3 1 50 909 906 911 0=0
InnerProduct             linear_178               1 1 911 912 0=288 1=1 2=41472
Slice                    chunk_8                  1 2 912 913 914 -23300=2,-233,-233 1=1
InnerProduct             linear_177               1 1 910 915 0=144 1=1 2=20736
Slice                    tensor_split_50          1 2 913 916 917 -23300=2,34,-233 1=0
Concat                   cat_67                   3 1 916 in34 917 918 0=0
Split                    splitncnn_129            1 2 918 919 920
Slice                    tensor_split_51          1 2 914 921 922 -23300=2,34,-233 1=0
Concat                   cat_68                   3 1 921 in35 922 923 0=0
Split                    splitncnn_130            1 2 923 924 925
Reshape                  view_370                 1 1 915 926 0=36 1=4 2=10
Permute                  permute_525              1 1 926 927 0=2
BinaryOp                 mul_133                  1 1 927 928 0=2 1=1 2=1.666667e-01
Reshape                  view_371                 1 1 920 929 0=36 1=4 2=50
Reshape                  view_372                 1 1 925 930 0=36 1=4 2=50
Permute                  permute_526              1 1 929 931 0=2
MatMul                   matmultransb_8           2 1 928 931 932 0=1
Softmax                  softmax_75               1 1 932 933 0=-1 1=1
Permute                  permute_528              1 1 930 934 0=2
MatMul                   bmm_411                  2 1 933 934 935
Permute                  permute_529              1 1 935 936 0=2
Reshape                  reshape_240              1 1 936 937 0=144 1=-1
ExpandDims               unsqueeze_599            1 1 937 938
InnerProduct             linear_179               1 1 938 939 0=144 1=1 2=20736
BinaryOp                 add_134                  2 1 902 939 940 0=0
Split                    splitncnn_131            1 2 940 941 942
Slice                    tensor_split_52          1 2 941 943 944 -23300=2,2,-233 1=0
Concat                   cat_69                   2 1 944 943 945 0=0
Permute                  permute_530              1 1 945 946 0=1
Convolution1D            conv1d_99                1 1 946 947 0=288 1=1 2=1 3=1 4=0 5=1 6=41472
GLU                      glu_8                    1 1 947 948 0=0
Concat                   cat_70                   2 1 in36 948 949 0=1
Split                    splitncnn_132            1 2 949 950 951
ConvolutionDepthWise1D   convdw1d_615             1 1 951 952 0=144 1=31 2=1 3=1 4=0 5=1 6=4464 7=144
Split                    splitncnn_133            1 2 952 953 954
BinaryOp                 sub_135                  1 1 953 955 0=1 1=1 2=1.000000e+00
Sigmoid                  sigmoid_44               1 1 955 956
BinaryOp                 mul_136                  2 1 954 956 957 0=2
Convolution1D            conv1d_100               1 1 957 958 0=144 1=1 2=1 3=1 4=0 5=1 6=20736
Slice                    tensor_split_53          1 2 958 959 960 -23300=2,8,-233 1=1
Permute                  permute_532              1 1 959 961 0=1
Permute                  permute_531              1 1 960 962 0=1
Concat                   cat_71                   2 1 962 961 963 0=0
BinaryOp                 add_137                  2 1 942 963 964 0=0
Split                    splitncnn_134            1 2 964 965 966
InnerProduct             linear_180               1 1 966 967 0=576 1=1 2=82944
Split                    splitncnn_135            1 2 967 968 969
BinaryOp                 sub_138                  1 1 968 970 0=1 1=1 2=1.000000e+00
Sigmoid                  sigmoid_45               1 1 970 971
BinaryOp                 mul_139                  2 1 969 971 972 0=2
InnerProduct             linear_181               1 1 972 973 0=144 1=1 2=82944
BinaryOp                 add_140                  2 1 965 973 974 0=0
Split                    splitncnn_136            1 3 974 975 976 977
BinaryOp                 mul_141                  2 1 975 976 978 0=2
Reduction                mean_444                 1 1 978 979 0=3 1=0 -23303=1,-1 4=1 5=1
BinaryOp                 add_142                  1 1 979 980 0=0 1=1 2=1.969823e+00
BinaryOp                 pow_143                  1 1 980 981 0=6 1=1 2=-5.000000e-01
BinaryOp                 mul_144                  2 1 977 981 982 0=2
Slice                    tensor_split_54          1 2 982 983 984 -23300=2,2,-233 1=0
Concat                   cat_72                   2 1 983 984 985 0=0
Split                    splitncnn_137            1 2 985 986 987
InnerProduct             linear_182               1 1 987 988 0=576 1=1 2=82944
Split                    splitncnn_138            1 2 988 989 990
BinaryOp                 sub_145                  1 1 989 991 0=1 1=1 2=1.000000e+00
Sigmoid                  sigmoid_46               1 1 991 992
BinaryOp                 mul_146                  2 1 990 992 993 0=2
InnerProduct             linear_183               1 1 993 994 0=144 1=1 2=82944
BinaryOp                 add_147                  2 1 986 994 995 0=0
Split                    splitncnn_139            1 2 995 996 997
Slice                    tensor_split_55          1 2 996 998 999 -23300=2,2,-233 1=0
Split                    splitncnn_141            1 3 999 1000 1001 1002
Split                    splitncnn_140            1 2 998 1003 1004
Concat                   cat_73                   2 1 1003 1000 1005 0=0
Concat                   cat_74                   3 1 56 1004 1001 1006 0=0
InnerProduct             linear_185               1 1 1006 1007 0=288 1=1 2=41472
Slice                    chunk_9                  1 2 1007 1008 1009 -23300=2,-233,-233 1=1
InnerProduct             linear_184               1 1 1005 1010 0=144 1=1 2=20736
Slice                    tensor_split_56          1 2 1008 1011 1012 -23300=2,34,-233 1=0
Concat                   cat_75                   3 1 1011 in38 1012 1013 0=0
Split                    splitncnn_142            1 2 1013 1014 1015
Slice                    tensor_split_57          1 2 1009 1016 1017 -23300=2,34,-233 1=0
Concat                   cat_76                   3 1 1016 in39 1017 1018 0=0
Split                    splitncnn_143            1 2 1018 1019 1020
Reshape                  view_373                 1 1 1010 1021 0=36 1=4 2=10
Permute                  permute_533              1 1 1021 1022 0=2
BinaryOp                 mul_148                  1 1 1022 1023 0=2 1=1 2=1.666667e-01
Reshape                  view_374                 1 1 1015 1024 0=36 1=4 2=50
Reshape                  view_375                 1 1 1020 1025 0=36 1=4 2=50
Permute                  permute_534              1 1 1024 1026 0=2
MatMul                   matmultransb_9           2 1 1023 1026 1027 0=1
Softmax                  softmax_76               1 1 1027 1028 0=-1 1=1
Permute                  permute_536              1 1 1025 1029 0=2
MatMul                   bmm_413                  2 1 1028 1029 1030
Permute                  permute_537              1 1 1030 1031 0=2
Reshape                  reshape_241              1 1 1031 1032 0=144 1=-1
ExpandDims               unsqueeze_600            1 1 1032 1033
InnerProduct             linear_186               1 1 1033 1034 0=144 1=1 2=20736
BinaryOp                 add_149                  2 1 997 1034 1035 0=0
Split                    splitncnn_144            1 2 1035 1036 1037
Slice                    tensor_split_58          1 2 1036 1038 1039 -23300=2,2,-233 1=0
Concat                   cat_77                   2 1 1039 1038 1040 0=0
Permute                  permute_538              1 1 1040 1041 0=1
Convolution1D            conv1d_101               1 1 1041 1042 0=288 1=1 2=1 3=1 4=0 5=1 6=41472
GLU                      glu_9                    1 1 1042 1043 0=0
Concat                   cat_78                   2 1 in40 1043 1044 0=1
Split                    splitncnn_145            1 2 1044 1045 1046
ConvolutionDepthWise1D   convdw1d_616             1 1 1046 1047 0=144 1=31 2=1 3=1 4=0 5=1 6=4464 7=144
Split                    splitncnn_146            1 2 1047 1048 1049
BinaryOp                 sub_150                  1 1 1048 1050 0=1 1=1 2=1.000000e+00
Sigmoid                  sigmoid_47               1 1 1050 1051
BinaryOp                 mul_151                  2 1 1049 1051 1052 0=2
Convolution1D            conv1d_102               1 1 1052 1053 0=144 1=1 2=1 3=1 4=0 5=1 6=20736
Slice                    tensor_split_59          1 2 1053 1054 1055 -23300=2,8,-233 1=1
Permute                  permute_540              1 1 1054 1056 0=1
Permute                  permute_539              1 1 1055 1057 0=1
Concat                   cat_79                   2 1 1057 1056 1058 0=0
BinaryOp                 add_152                  2 1 1037 1058 1059 0=0
Split                    splitncnn_147            1 2 1059 1060 1061
InnerProduct             linear_187               1 1 1061 1062 0=576 1=1 2=82944
Split                    splitncnn_148            1 2 1062 1063 1064
BinaryOp                 sub_153                  1 1 1063 1065 0=1 1=1 2=1.000000e+00
Sigmoid                  sigmoid_48               1 1 1065 1066
BinaryOp                 mul_154                  2 1 1064 1066 1067 0=2
InnerProduct             linear_188               1 1 1067 1068 0=144 1=1 2=82944
BinaryOp                 add_155                  2 1 1060 1068 1069 0=0
Split                    splitncnn_149            1 3 1069 1070 1071 1072
BinaryOp                 mul_156                  2 1 1070 1071 1073 0=2
Reduction                mean_446                 1 1 1073 1074 0=3 1=0 -23303=1,-1 4=1 5=1
BinaryOp                 add_157                  1 1 1074 1075 0=0 1=1 2=2.125452e+00
BinaryOp                 pow_158                  1 1 1075 1076 0=6 1=1 2=-5.000000e-01
BinaryOp                 mul_159                  2 1 1072 1076 1077 0=2
Slice                    tensor_split_60          1 2 1077 1078 1079 -23300=2,2,-233 1=0
Concat                   cat_80                   2 1 1078 1079 1080 0=0
Split                    splitncnn_150            1 2 1080 1081 1082
InnerProduct             linear_189               1 1 1082 1083 0=576 1=1 2=82944
Split                    splitncnn_151            1 2 1083 1084 1085
BinaryOp                 sub_160                  1 1 1084 1086 0=1 1=1 2=1.000000e+00
Sigmoid                  sigmoid_49               1 1 1086 1087
BinaryOp                 mul_161                  2 1 1085 1087 1088 0=2
InnerProduct             linear_190               1 1 1088 1089 0=144 1=1 2=82944
BinaryOp                 add_162                  2 1 1081 1089 1090 0=0
Split                    splitncnn_152            1 2 1090 1091 1092
Slice                    tensor_split_61          1 2 1091 1093 1094 -23300=2,2,-233 1=0
Split                    splitncnn_154            1 3 1094 1095 1096 1097
Split                    splitncnn_153            1 2 1093 1098 1099
Concat                   cat_81                   2 1 1098 1095 1100 0=0
Concat                   cat_82                   3 1 62 1099 1096 1101 0=0
InnerProduct             linear_192               1 1 1101 1102 0=288 1=1 2=41472
Slice                    chunk_10                 1 2 1102 1103 1104 -23300=2,-233,-233 1=1
InnerProduct             linear_191               1 1 1100 1105 0=144 1=1 2=20736
Slice                    tensor_split_62          1 2 1103 1106 1107 -23300=2,34,-233 1=0
Concat                   cat_83                   3 1 1106 in42 1107 1108 0=0
Split                    splitncnn_155            1 2 1108 1109 1110
Slice                    tensor_split_63          1 2 1104 1111 1112 -23300=2,34,-233 1=0
Concat                   cat_84                   3 1 1111 in43 1112 1113 0=0
Split                    splitncnn_156            1 2 1113 1114 1115
Reshape                  view_376                 1 1 1105 1116 0=36 1=4 2=10
Permute                  permute_541              1 1 1116 1117 0=2
BinaryOp                 mul_163                  1 1 1117 1118 0=2 1=1 2=1.666667e-01
Reshape                  view_377                 1 1 1110 1119 0=36 1=4 2=50
Reshape                  view_378                 1 1 1115 1120 0=36 1=4 2=50
Permute                  permute_542              1 1 1119 1121 0=2
MatMul                   matmultransb_10          2 1 1118 1121 1122 0=1
Softmax                  softmax_77               1 1 1122 1123 0=-1 1=1
Permute                  permute_544              1 1 1120 1124 0=2
MatMul                   bmm_415                  2 1 1123 1124 1125
Permute                  permute_545              1 1 1125 1126 0=2
Reshape                  reshape_242              1 1 1126 1127 0=144 1=-1
ExpandDims               unsqueeze_601            1 1 1127 1128
InnerProduct             linear_193               1 1 1128 1129 0=144 1=1 2=20736
BinaryOp                 add_164                  2 1 1092 1129 1130 0=0
Split                    splitncnn_157            1 2 1130 1131 1132
Slice                    tensor_split_64          1 2 1131 1133 1134 -23300=2,2,-233 1=0
Concat                   cat_85                   2 1 1134 1133 1135 0=0
Permute                  permute_546              1 1 1135 1136 0=1
Convolution1D            conv1d_103               1 1 1136 1137 0=288 1=1 2=1 3=1 4=0 5=1 6=41472
GLU                      glu_10                   1 1 1137 1138 0=0
Concat                   cat_86                   2 1 in44 1138 1139 0=1
Split                    splitncnn_158            1 2 1139 1140 1141
ConvolutionDepthWise1D   convdw1d_617             1 1 1141 1142 0=144 1=31 2=1 3=1 4=0 5=1 6=4464 7=144
Split                    splitncnn_159            1 2 1142 1143 1144
BinaryOp                 sub_165                  1 1 1143 1145 0=1 1=1 2=1.000000e+00
Sigmoid                  sigmoid_50               1 1 1145 1146
BinaryOp                 mul_166                  2 1 1144 1146 1147 0=2
Convolution1D            conv1d_104               1 1 1147 1148 0=144 1=1 2=1 3=1 4=0 5=1 6=20736
Slice                    tensor_split_65          1 2 1148 1149 1150 -23300=2,8,-233 1=1
Permute                  permute_548              1 1 1149 1151 0=1
Permute                  permute_547              1 1 1150 1152 0=1
Concat                   cat_87                   2 1 1152 1151 1153 0=0
BinaryOp                 add_167                  2 1 1132 1153 1154 0=0
Split                    splitncnn_160            1 2 1154 1155 1156
InnerProduct             linear_194               1 1 1156 1157 0=576 1=1 2=82944
Split                    splitncnn_161            1 2 1157 1158 1159
BinaryOp                 sub_168                  1 1 1158 1160 0=1 1=1 2=1.000000e+00
Sigmoid                  sigmoid_51               1 1 1160 1161
BinaryOp                 mul_169                  2 1 1159 1161 1162 0=2
InnerProduct             linear_195               1 1 1162 1163 0=144 1=1 2=82944
BinaryOp                 add_170                  2 1 1155 1163 1164 0=0
Split                    splitncnn_162            1 3 1164 1165 1166 1167
BinaryOp                 mul_171                  2 1 1165 1166 1168 0=2
Reduction                mean_448                 1 1 1168 1169 0=3 1=0 -23303=1,-1 4=1 5=1
BinaryOp                 add_172                  1 1 1169 1170 0=0 1=1 2=2.230928e+00
BinaryOp                 pow_173                  1 1 1170 1171 0=6 1=1 2=-5.000000e-01
BinaryOp                 mul_174                  2 1 1167 1171 1172 0=2
Slice                    tensor_split_66          1 2 1172 1173 1174 -23300=2,2,-233 1=0
Concat                   cat_88                   2 1 1173 1174 1175 0=0
Split                    splitncnn_163            1 2 1175 1176 1177
InnerProduct             linear_196               1 1 1177 1178 0=576 1=1 2=82944
Split                    splitncnn_164            1 2 1178 1179 1180
BinaryOp                 sub_175                  1 1 1179 1181 0=1 1=1 2=1.000000e+00
Sigmoid                  sigmoid_52               1 1 1181 1182
BinaryOp                 mul_176                  2 1 1180 1182 1183 0=2
InnerProduct             linear_197               1 1 1183 1184 0=144 1=1 2=82944
BinaryOp                 add_177                  2 1 1176 1184 1185 0=0
Split                    splitncnn_165            1 2 1185 1186 1187
Slice                    tensor_split_67          1 2 1186 1188 1189 -23300=2,2,-233 1=0
Split                    splitncnn_167            1 3 1189 1190 1191 1192
Split                    splitncnn_166            1 2 1188 1193 1194
Concat                   cat_89                   2 1 1193 1190 1195 0=0
Concat                   cat_90                   3 1 68 1194 1191 1196 0=0
InnerProduct             linear_199               1 1 1196 1197 0=288 1=1 2=41472
Slice                    chunk_11                 1 2 1197 1198 1199 -23300=2,-233,-233 1=1
InnerProduct             linear_198               1 1 1195 1200 0=144 1=1 2=20736
Slice                    tensor_split_68          1 2 1198 1201 1202 -23300=2,34,-233 1=0
Concat                   cat_91                   3 1 1201 in46 1202 1203 0=0
Split                    splitncnn_168            1 2 1203 1204 1205
Slice                    tensor_split_69          1 2 1199 1206 1207 -23300=2,34,-233 1=0
Concat                   cat_92                   3 1 1206 in47 1207 1208 0=0
Split                    splitncnn_169            1 2 1208 1209 1210
Reshape                  view_379                 1 1 1200 1211 0=36 1=4 2=10
Permute                  permute_549              1 1 1211 1212 0=2
BinaryOp                 mul_178                  1 1 1212 1213 0=2 1=1 2=1.666667e-01
Reshape                  view_380                 1 1 1205 1214 0=36 1=4 2=50
Reshape                  view_381                 1 1 1210 1215 0=36 1=4 2=50
Permute                  permute_550              1 1 1214 1216 0=2
MatMul                   matmultransb_11          2 1 1213 1216 1217 0=1
Softmax                  softmax_78               1 1 1217 1218 0=-1 1=1
Permute                  permute_552              1 1 1215 1219 0=2
MatMul                   bmm_417                  2 1 1218 1219 1220
Permute                  permute_553              1 1 1220 1221 0=2
Reshape                  reshape_243              1 1 1221 1222 0=144 1=-1
ExpandDims               unsqueeze_602            1 1 1222 1223
InnerProduct             linear_200               1 1 1223 1224 0=144 1=1 2=20736
BinaryOp                 add_179                  2 1 1187 1224 1225 0=0
Split                    splitncnn_170            1 2 1225 1226 1227
Slice                    tensor_split_70          1 2 1226 1228 1229 -23300=2,2,-233 1=0
Concat                   cat_93                   2 1 1229 1228 1230 0=0
Permute                  permute_554              1 1 1230 1231 0=1
Convolution1D            conv1d_105               1 1 1231 1232 0=288 1=1 2=1 3=1 4=0 5=1 6=41472
GLU                      glu_11                   1 1 1232 1233 0=0
Concat                   cat_94                   2 1 in48 1233 1234 0=1
Split                    splitncnn_171            1 2 1234 1235 1236
ConvolutionDepthWise1D   convdw1d_618             1 1 1236 1237 0=144 1=31 2=1 3=1 4=0 5=1 6=4464 7=144
Split                    splitncnn_172            1 2 1237 1238 1239
BinaryOp                 sub_180                  1 1 1238 1240 0=1 1=1 2=1.000000e+00
Sigmoid                  sigmoid_53               1 1 1240 1241
BinaryOp                 mul_181                  2 1 1239 1241 1242 0=2
Convolution1D            conv1d_106               1 1 1242 1243 0=144 1=1 2=1 3=1 4=0 5=1 6=20736
Slice                    tensor_split_71          1 2 1243 1244 1245 -23300=2,8,-233 1=1
Permute                  permute_556              1 1 1244 1246 0=1
Permute                  permute_555              1 1 1245 1247 0=1
Concat                   cat_95                   2 1 1247 1246 1248 0=0
BinaryOp                 add_182                  2 1 1227 1248 1249 0=0
Split                    splitncnn_173            1 2 1249 1250 1251
InnerProduct             linear_201               1 1 1251 1252 0=576 1=1 2=82944
Split                    splitncnn_174            1 2 1252 1253 1254
BinaryOp                 sub_183                  1 1 1253 1255 0=1 1=1 2=1.000000e+00
Sigmoid                  sigmoid_54               1 1 1255 1256
BinaryOp                 mul_184                  2 1 1254 1256 1257 0=2
InnerProduct             linear_202               1 1 1257 1258 0=144 1=1 2=82944
BinaryOp                 add_185                  2 1 1250 1258 1259 0=0
Split                    splitncnn_175            1 3 1259 1260 1261 1262
BinaryOp                 mul_186                  2 1 1260 1261 1263 0=2
Reduction                mean_450                 1 1 1263 1264 0=3 1=0 -23303=1,-1 4=1 5=1
BinaryOp                 add_187                  1 1 1264 1265 0=0 1=1 2=2.460389e+00
BinaryOp                 pow_188                  1 1 1265 1266 0=6 1=1 2=-5.000000e-01
BinaryOp                 mul_189                  2 1 1262 1266 1267 0=2
Slice                    tensor_split_72          1 2 1267 1268 1269 -23300=2,2,-233 1=0
Concat                   cat_96                   2 1 1268 1269 1270 0=0
Split                    splitncnn_176            1 2 1270 1271 1272
InnerProduct             linear_203               1 1 1272 1273 0=576 1=1 2=82944
Split                    splitncnn_177            1 2 1273 1274 1275
BinaryOp                 sub_190                  1 1 1274 1276 0=1 1=1 2=1.000000e+00
Sigmoid                  sigmoid_55               1 1 1276 1277
BinaryOp                 mul_191                  2 1 1275 1277 1278 0=2
InnerProduct             linear_204               1 1 1278 1279 0=144 1=1 2=82944
BinaryOp                 add_192                  2 1 1271 1279 1280 0=0
Split                    splitncnn_178            1 2 1280 1281 1282
Slice                    tensor_split_73          1 2 1281 1283 1284 -23300=2,2,-233 1=0
Split                    splitncnn_180            1 3 1284 1285 1286 1287
Split                    splitncnn_179            1 2 1283 1288 1289
Concat                   cat_97                   2 1 1288 1285 1290 0=0
Concat                   cat_98                   3 1 74 1289 1286 1291 0=0
InnerProduct             linear_206               1 1 1291 1292 0=288 1=1 2=41472
Slice                    chunk_12                 1 2 1292 1293 1294 -23300=2,-233,-233 1=1
InnerProduct             linear_205               1 1 1290 1295 0=144 1=1 2=20736
Slice                    tensor_split_74          1 2 1293 1296 1297 -23300=2,34,-233 1=0
Concat                   cat_99                   3 1 1296 in50 1297 1298 0=0
Split                    splitncnn_181            1 2 1298 1299 1300
Slice                    tensor_split_75          1 2 1294 1301 1302 -23300=2,34,-233 1=0
Concat                   cat_100                  3 1 1301 in51 1302 1303 0=0
Split                    splitncnn_182            1 2 1303 1304 1305
Reshape                  view_382                 1 1 1295 1306 0=36 1=4 2=10
Permute                  permute_557              1 1 1306 1307 0=2
BinaryOp                 mul_193                  1 1 1307 1308 0=2 1=1 2=1.666667e-01
Reshape                  view_383                 1 1 1300 1309 0=36 1=4 2=50
Reshape                  view_384                 1 1 1305 1310 0=36 1=4 2=50
Permute                  permute_558              1 1 1309 1311 0=2
MatMul                   matmultransb_12          2 1 1308 1311 1312 0=1
Softmax                  softmax_79               1 1 1312 1313 0=-1 1=1
Permute                  permute_560              1 1 1310 1314 0=2
MatMul                   bmm_419                  2 1 1313 1314 1315
Permute                  permute_561              1 1 1315 1316 0=2
Reshape                  reshape_244              1 1 1316 1317 0=144 1=-1
ExpandDims               unsqueeze_603            1 1 1317 1318
InnerProduct             linear_207               1 1 1318 1319 0=144 1=1 2=20736
BinaryOp                 add_194                  2 1 1282 1319 1320 0=0
Split                    splitncnn_183            1 2 1320 1321 1322
Slice                    tensor_split_76          1 2 1321 1323 1324 -23300=2,2,-233 1=0
Concat                   cat_101                  2 1 1324 1323 1325 0=0
Permute                  permute_562              1 1 1325 1326 0=1
Convolution1D            conv1d_107               1 1 1326 1327 0=288 1=1 2=1 3=1 4=0 5=1 6=41472
GLU                      glu_12                   1 1 1327 1328 0=0
Concat                   cat_102                  2 1 in52 1328 1329 0=1
Split                    splitncnn_184            1 2 1329 1330 1331
ConvolutionDepthWise1D   convdw1d_619             1 1 1331 1332 0=144 1=31 2=1 3=1 4=0 5=1 6=4464 7=144
Split                    splitncnn_185            1 2 1332 1333 1334
BinaryOp                 sub_195                  1 1 1333 1335 0=1 1=1 2=1.000000e+00
Sigmoid                  sigmoid_56               1 1 1335 1336
BinaryOp                 mul_196                  2 1 1334 1336 1337 0=2
Convolution1D            conv1d_108               1 1 1337 1338 0=144 1=1 2=1 3=1 4=0 5=1 6=20736
Slice                    tensor_split_77          1 2 1338 1339 1340 -23300=2,8,-233 1=1
Permute                  permute_564              1 1 1339 1341 0=1
Permute                  permute_563              1 1 1340 1342 0=1
Concat                   cat_103                  2 1 1342 1341 1343 0=0
BinaryOp                 add_197                  2 1 1322 1343 1344 0=0
Split                    splitncnn_186            1 2 1344 1345 1346
InnerProduct             linear_208               1 1 1346 1347 0=576 1=1 2=82944
Split                    splitncnn_187            1 2 1347 1348 1349
BinaryOp                 sub_198                  1 1 1348 1350 0=1 1=1 2=1.000000e+00
Sigmoid                  sigmoid_57               1 1 1350 1351
BinaryOp                 mul_199                  2 1 1349 1351 1352 0=2
InnerProduct             linear_209               1 1 1352 1353 0=144 1=1 2=82944
BinaryOp                 add_200                  2 1 1345 1353 1354 0=0
Split                    splitncnn_188            1 3 1354 1355 1356 1357
BinaryOp                 mul_201                  2 1 1355 1356 1358 0=2
Reduction                mean_452                 1 1 1358 1359 0=3 1=0 -23303=1,-1 4=1 5=1
BinaryOp                 add_202                  1 1 1359 1360 0=0 1=1 2=1.900982e+00
BinaryOp                 pow_203                  1 1 1360 1361 0=6 1=1 2=-5.000000e-01
BinaryOp                 mul_204                  2 1 1357 1361 1362 0=2
Slice                    tensor_split_78          1 2 1362 1363 1364 -23300=2,2,-233 1=0
Concat                   cat_104                  2 1 1363 1364 1365 0=0
Split                    splitncnn_189            1 2 1365 1366 1367
InnerProduct             linear_210               1 1 1367 1368 0=576 1=1 2=82944
Split                    splitncnn_190            1 2 1368 1369 1370
BinaryOp                 sub_205                  1 1 1369 1371 0=1 1=1 2=1.000000e+00
Sigmoid                  sigmoid_58               1 1 1371 1372
BinaryOp                 mul_206                  2 1 1370 1372 1373 0=2
InnerProduct             linear_211               1 1 1373 1374 0=144 1=1 2=82944
BinaryOp                 add_207                  2 1 1366 1374 1375 0=0
Split                    splitncnn_191            1 2 1375 1376 1377
Slice                    tensor_split_79          1 2 1376 1378 1379 -23300=2,2,-233 1=0
Split                    splitncnn_193            1 3 1379 1380 1381 1382
Split                    splitncnn_192            1 2 1378 1383 1384
Concat                   cat_105                  2 1 1383 1380 1385 0=0
Concat                   cat_106                  3 1 80 1384 1381 1386 0=0
InnerProduct             linear_213               1 1 1386 1387 0=288 1=1 2=41472
Slice                    chunk_13                 1 2 1387 1388 1389 -23300=2,-233,-233 1=1
InnerProduct             linear_212               1 1 1385 1390 0=144 1=1 2=20736
Slice                    tensor_split_80          1 2 1388 1391 1392 -23300=2,34,-233 1=0
Concat                   cat_107                  3 1 1391 in54 1392 1393 0=0
Split                    splitncnn_194            1 2 1393 1394 1395
Slice                    tensor_split_81          1 2 1389 1396 1397 -23300=2,34,-233 1=0
Concat                   cat_108                  3 1 1396 in55 1397 1398 0=0
Split                    splitncnn_195            1 2 1398 1399 1400
Reshape                  view_385                 1 1 1390 1401 0=36 1=4 2=10
Permute                  permute_565              1 1 1401 1402 0=2
BinaryOp                 mul_208                  1 1 1402 1403 0=2 1=1 2=1.666667e-01
Reshape                  view_386                 1 1 1395 1404 0=36 1=4 2=50
Reshape                  view_387                 1 1 1400 1405 0=36 1=4 2=50
Permute                  permute_566              1 1 1404 1406 0=2
MatMul                   matmultransb_13          2 1 1403 1406 1407 0=1
Softmax                  softmax_80               1 1 1407 1408 0=-1 1=1
Permute                  permute_568              1 1 1405 1409 0=2
MatMul                   bmm_421                  2 1 1408 1409 1410
Permute                  permute_569              1 1 1410 1411 0=2
Reshape                  reshape_245              1 1 1411 1412 0=144 1=-1
ExpandDims               unsqueeze_604            1 1 1412 1413
InnerProduct             linear_214               1 1 1413 1414 0=144 1=1 2=20736
BinaryOp                 add_209                  2 1 1377 1414 1415 0=0
Split                    splitncnn_196            1 2 1415 1416 1417
Slice                    tensor_split_82          1 2 1416 1418 1419 -23300=2,2,-233 1=0
Concat                   cat_109                  2 1 1419 1418 1420 0=0
Permute                  permute_570              1 1 1420 1421 0=1
Convolution1D            conv1d_109               1 1 1421 1422 0=288 1=1 2=1 3=1 4=0 5=1 6=41472
GLU                      glu_13                   1 1 1422 1423 0=0
Concat                   cat_110                  2 1 in56 1423 1424 0=1
Split                    splitncnn_197            1 2 1424 1425 1426
ConvolutionDepthWise1D   convdw1d_620             1 1 1426 1427 0=144 1=31 2=1 3=1 4=0 5=1 6=4464 7=144
Split                    splitncnn_198            1 2 1427 1428 1429
BinaryOp                 sub_210                  1 1 1428 1430 0=1 1=1 2=1.000000e+00
Sigmoid                  sigmoid_59               1 1 1430 1431
BinaryOp                 mul_211                  2 1 1429 1431 1432 0=2
Convolution1D            conv1d_110               1 1 1432 1433 0=144 1=1 2=1 3=1 4=0 5=1 6=20736
Slice                    tensor_split_83          1 2 1433 1434 1435 -23300=2,8,-233 1=1
Permute                  permute_572              1 1 1434 1436 0=1
Permute                  permute_571              1 1 1435 1437 0=1
Concat                   cat_111                  2 1 1437 1436 1438 0=0
BinaryOp                 add_212                  2 1 1417 1438 1439 0=0
Split                    splitncnn_199            1 2 1439 1440 1441
InnerProduct             linear_215               1 1 1441 1442 0=576 1=1 2=82944
Split                    splitncnn_200            1 2 1442 1443 1444
BinaryOp                 sub_213                  1 1 1443 1445 0=1 1=1 2=1.000000e+00
Sigmoid                  sigmoid_60               1 1 1445 1446
BinaryOp                 mul_214                  2 1 1444 1446 1447 0=2
InnerProduct             linear_216               1 1 1447 1448 0=144 1=1 2=82944
BinaryOp                 add_215                  2 1 1440 1448 1449 0=0
Split                    splitncnn_201            1 3 1449 1450 1451 1452
BinaryOp                 mul_216                  2 1 1450 1451 1453 0=2
Reduction                mean_454                 1 1 1453 1454 0=3 1=0 -23303=1,-1 4=1 5=1
BinaryOp                 add_217                  1 1 1454 1455 0=0 1=1 2=2.083574e+00
BinaryOp                 pow_218                  1 1 1455 1456 0=6 1=1 2=-5.000000e-01
BinaryOp                 mul_219                  2 1 1452 1456 1457 0=2
Slice                    tensor_split_84          1 2 1457 1458 1459 -23300=2,2,-233 1=0
Concat                   cat_112                  2 1 1458 1459 1460 0=0
Split                    splitncnn_202            1 2 1460 1461 1462
InnerProduct             linear_217               1 1 1462 1463 0=576 1=1 2=82944
Split                    splitncnn_203            1 2 1463 1464 1465
BinaryOp                 sub_220                  1 1 1464 1466 0=1 1=1 2=1.000000e+00
Sigmoid                  sigmoid_61               1 1 1466 1467
BinaryOp                 mul_221                  2 1 1465 1467 1468 0=2
InnerProduct             linear_218               1 1 1468 1469 0=144 1=1 2=82944
BinaryOp                 add_222                  2 1 1461 1469 1470 0=0
Split                    splitncnn_204            1 2 1470 1471 1472
Slice                    tensor_split_85          1 2 1471 1473 1474 -23300=2,2,-233 1=0
Split                    splitncnn_206            1 3 1474 1475 1476 1477
Split                    splitncnn_205            1 2 1473 1478 1479
Concat                   cat_113                  2 1 1478 1475 1480 0=0
Concat                   cat_114                  3 1 86 1479 1476 1481 0=0
InnerProduct             linear_220               1 1 1481 1482 0=288 1=1 2=41472
Slice                    chunk_14                 1 2 1482 1483 1484 -23300=2,-233,-233 1=1
InnerProduct             linear_219               1 1 1480 1485 0=144 1=1 2=20736
Slice                    tensor_split_86          1 2 1483 1486 1487 -23300=2,34,-233 1=0
Concat                   cat_115                  3 1 1486 in58 1487 1488 0=0
Split                    splitncnn_207            1 2 1488 1489 1490
Slice                    tensor_split_87          1 2 1484 1491 1492 -23300=2,34,-233 1=0
Concat                   cat_116                  3 1 1491 in59 1492 1493 0=0
Split                    splitncnn_208            1 2 1493 1494 1495
Reshape                  view_388                 1 1 1485 1496 0=36 1=4 2=10
Permute                  permute_573              1 1 1496 1497 0=2
BinaryOp                 mul_223                  1 1 1497 1498 0=2 1=1 2=1.666667e-01
Reshape                  view_389                 1 1 1490 1499 0=36 1=4 2=50
Reshape                  view_390                 1 1 1495 1500 0=36 1=4 2=50
Permute                  permute_574              1 1 1499 1501 0=2
MatMul                   matmultransb_14          2 1 1498 1501 1502 0=1
Softmax                  softmax_81               1 1 1502 1503 0=-1 1=1
Permute                  permute_576              1 1 1500 1504 0=2
MatMul                   bmm_423                  2 1 1503 1504 1505
Permute                  permute_577              1 1 1505 1506 0=2
Reshape                  reshape_246              1 1 1506 1507 0=144 1=-1
ExpandDims               unsqueeze_605            1 1 1507 1508
InnerProduct             linear_221               1 1 1508 1509 0=144 1=1 2=20736
BinaryOp                 add_224                  2 1 1472 1509 1510 0=0
Split                    splitncnn_209            1 2 1510 1511 1512
Slice                    tensor_split_88          1 2 1511 1513 1514 -23300=2,2,-233 1=0
Concat                   cat_117                  2 1 1514 1513 1515 0=0
Permute                  permute_578              1 1 1515 1516 0=1
Convolution1D            conv1d_111               1 1 1516 1517 0=288 1=1 2=1 3=1 4=0 5=1 6=41472
GLU                      glu_14                   1 1 1517 1518 0=0
Concat                   cat_118                  2 1 in60 1518 1519 0=1
Split                    splitncnn_210            1 2 1519 1520 1521
ConvolutionDepthWise1D   convdw1d_621             1 1 1521 1522 0=144 1=31 2=1 3=1 4=0 5=1 6=4464 7=144
Split                    splitncnn_211            1 2 1522 1523 1524
BinaryOp                 sub_225                  1 1 1523 1525 0=1 1=1 2=1.000000e+00
Sigmoid                  sigmoid_62               1 1 1525 1526
BinaryOp                 mul_226                  2 1 1524 1526 1527 0=2
Convolution1D            conv1d_112               1 1 1527 1528 0=144 1=1 2=1 3=1 4=0 5=1 6=20736
Slice                    tensor_split_89          1 2 1528 1529 1530 -23300=2,8,-233 1=1
Permute                  permute_580              1 1 1529 1531 0=1
Permute                  permute_579              1 1 1530 1532 0=1
Concat                   cat_119                  2 1 1532 1531 1533 0=0
BinaryOp                 add_227                  2 1 1512 1533 1534 0=0
Split                    splitncnn_212            1 2 1534 1535 1536
InnerProduct             linear_222               1 1 1536 1537 0=576 1=1 2=82944
Split                    splitncnn_213            1 2 1537 1538 1539
BinaryOp                 sub_228                  1 1 1538 1540 0=1 1=1 2=1.000000e+00
Sigmoid                  sigmoid_63               1 1 1540 1541
BinaryOp                 mul_229                  2 1 1539 1541 1542 0=2
InnerProduct             linear_223               1 1 1542 1543 0=144 1=1 2=82944
BinaryOp                 add_230                  2 1 1535 1543 1544 0=0
Split                    splitncnn_214            1 3 1544 1545 1546 1547
BinaryOp                 mul_231                  2 1 1545 1546 1548 0=2
Reduction                mean_456                 1 1 1548 1549 0=3 1=0 -23303=1,-1 4=1 5=1
BinaryOp                 add_232                  1 1 1549 1550 0=0 1=1 2=1.938745e+00
BinaryOp                 pow_233                  1 1 1550 1551 0=6 1=1 2=-5.000000e-01
BinaryOp                 mul_234                  2 1 1547 1551 1552 0=2
Slice                    tensor_split_90          1 2 1552 1553 1554 -23300=2,2,-233 1=0
Concat                   cat_120                  2 1 1553 1554 1555 0=0
Split                    splitncnn_215            1 2 1555 1556 1557
InnerProduct             linear_224               1 1 1557 1558 0=576 1=1 2=82944
Split                    splitncnn_216            1 2 1558 1559 1560
BinaryOp                 sub_235                  1 1 1559 1561 0=1 1=1 2=1.000000e+00
Sigmoid                  sigmoid_64               1 1 1561 1562
BinaryOp                 mul_236                  2 1 1560 1562 1563 0=2
InnerProduct             linear_225               1 1 1563 1564 0=144 1=1 2=82944
BinaryOp                 add_237                  2 1 1556 1564 1565 0=0
Split                    splitncnn_217            1 2 1565 1566 1567
Slice                    tensor_split_91          1 2 1566 1568 1569 -23300=2,2,-233 1=0
Split                    splitncnn_219            1 3 1569 1570 1571 1572
Split                    splitncnn_218            1 2 1568 1573 1574
Concat                   cat_121                  2 1 1573 1570 1575 0=0
Concat                   cat_122                  3 1 92 1574 1571 1576 0=0
InnerProduct             linear_227               1 1 1576 1577 0=288 1=1 2=41472
Slice                    chunk_15                 1 2 1577 1578 1579 -23300=2,-233,-233 1=1
InnerProduct             linear_226               1 1 1575 1580 0=144 1=1 2=20736
Slice                    tensor_split_92          1 2 1578 1581 1582 -23300=2,34,-233 1=0
Concat                   cat_123                  3 1 1581 in62 1582 1583 0=0
Split                    splitncnn_220            1 2 1583 1584 1585
Slice                    tensor_split_93          1 2 1579 1586 1587 -23300=2,34,-233 1=0
Concat                   cat_124                  3 1 1586 in63 1587 1588 0=0
Split                    splitncnn_221            1 2 1588 1589 1590
Reshape                  view_391                 1 1 1580 1591 0=36 1=4 2=10
Permute                  permute_581              1 1 1591 1592 0=2
BinaryOp                 mul_238                  1 1 1592 1593 0=2 1=1 2=1.666667e-01
Reshape                  view_392                 1 1 1585 1594 0=36 1=4 2=50
Reshape                  view_393                 1 1 1590 1595 0=36 1=4 2=50
Permute                  permute_582              1 1 1594 1596 0=2
MatMul                   matmultransb_15          2 1 1593 1596 1597 0=1
Softmax                  softmax_82               1 1 1597 1598 0=-1 1=1
Permute                  permute_584              1 1 1595 1599 0=2
MatMul                   bmm_425                  2 1 1598 1599 1600
Permute                  permute_585              1 1 1600 1601 0=2
Reshape                  reshape_247              1 1 1601 1602 0=144 1=-1
ExpandDims               unsqueeze_606            1 1 1602 1603
InnerProduct             linear_228               1 1 1603 1604 0=144 1=1 2=20736
BinaryOp                 add_239                  2 1 1567 1604 1605 0=0
Split                    splitncnn_222            1 2 1605 1606 1607
Slice                    tensor_split_94          1 2 1606 1608 1609 -23300=2,2,-233 1=0
Concat                   cat_125                  2 1 1609 1608 1610 0=0
Permute                  permute_586              1 1 1610 1611 0=1
Convolution1D            conv1d_113               1 1 1611 1612 0=288 1=1 2=1 3=1 4=0 5=1 6=41472
GLU                      glu_15                   1 1 1612 1613 0=0
Concat                   cat_126                  2 1 in64 1613 1614 0=1
Split                    splitncnn_223            1 2 1614 1615 1616
ConvolutionDepthWise1D   convdw1d_622             1 1 1616 1617 0=144 1=31 2=1 3=1 4=0 5=1 6=4464 7=144
Split                    splitncnn_224            1 2 1617 1618 1619
BinaryOp                 sub_240                  1 1 1618 1620 0=1 1=1 2=1.000000e+00
Sigmoid                  sigmoid_65               1 1 1620 1621
BinaryOp                 mul_241                  2 1 1619 1621 1622 0=2
Convolution1D            conv1d_114               1 1 1622 1623 0=144 1=1 2=1 3=1 4=0 5=1 6=20736
Slice                    tensor_split_95          1 2 1623 1624 1625 -23300=2,8,-233 1=1
Permute                  permute_588              1 1 1624 1626 0=1
Permute                  permute_587              1 1 1625 1627 0=1
Concat                   cat_127                  2 1 1627 1626 1628 0=0
BinaryOp                 add_242                  2 1 1607 1628 1629 0=0
Split                    splitncnn_225            1 2 1629 1630 1631
InnerProduct             linear_229               1 1 1631 1632 0=576 1=1 2=82944
Split                    splitncnn_226            1 2 1632 1633 1634
BinaryOp                 sub_243                  1 1 1633 1635 0=1 1=1 2=1.000000e+00
Sigmoid                  sigmoid_66               1 1 1635 1636
BinaryOp                 mul_244                  2 1 1634 1636 1637 0=2
InnerProduct             linear_230               1 1 1637 1638 0=144 1=1 2=82944
BinaryOp                 add_245                  2 1 1630 1638 1639 0=0
Split                    splitncnn_227            1 3 1639 1640 1641 1642
BinaryOp                 mul_246                  2 1 1640 1641 1643 0=2
Reduction                mean_458                 1 1 1643 1644 0=3 1=0 -23303=1,-1 4=1 5=1
BinaryOp                 add_247                  1 1 1644 1645 0=0 1=1 2=1.524804e+00
BinaryOp                 pow_248                  1 1 1645 1646 0=6 1=1 2=-5.000000e-01
BinaryOp                 mul_249                  2 1 1642 1646 1647 0=2
Reduction                mean_457                 1 1 1572 1648 0=3 1=0 -23303=1,0 4=1 5=1
Concat                   cat_128                  2 1 93 1648 1649 0=0
Reduction                mean_455                 1 1 1477 1650 0=3 1=0 -23303=1,0 4=1 5=1
Concat                   cat_129                  2 1 87 1650 1651 0=0
Reduction                mean_453                 1 1 1382 1652 0=3 1=0 -23303=1,0 4=1 5=1
Concat                   cat_130                  2 1 81 1652 1653 0=0
Reduction                mean_451                 1 1 1287 1654 0=3 1=0 -23303=1,0 4=1 5=1
Concat                   cat_131                  2 1 75 1654 1655 0=0
Reduction                mean_449                 1 1 1192 1656 0=3 1=0 -23303=1,0 4=1 5=1
Concat                   cat_132                  2 1 69 1656 1657 0=0
Reduction                mean_447                 1 1 1097 1658 0=3 1=0 -23303=1,0 4=1 5=1
Concat                   cat_133                  2 1 63 1658 1659 0=0
Reduction                mean_445                 1 1 1002 1660 0=3 1=0 -23303=1,0 4=1 5=1
Concat                   cat_134                  2 1 57 1660 1661 0=0
Reduction                mean_443                 1 1 907 1662 0=3 1=0 -23303=1,0 4=1 5=1
Concat                   cat_135                  2 1 51 1662 1663 0=0
Reduction                mean_441                 1 1 812 1664 0=3 1=0 -23303=1,0 4=1 5=1
Concat                   cat_136                  2 1 45 1664 1665 0=0
Reduction                mean_439                 1 1 717 1666 0=3 1=0 -23303=1,0 4=1 5=1
Concat                   cat_137                  2 1 39 1666 1667 0=0
Reduction                mean_437                 1 1 622 1668 0=3 1=0 -23303=1,0 4=1 5=1
Concat                   cat_138                  2 1 33 1668 1669 0=0
Reduction                mean_435                 1 1 527 1670 0=3 1=0 -23303=1,0 4=1 5=1
Concat                   cat_139                  2 1 27 1670 1671 0=0
Reduction                mean_433                 1 1 432 1672 0=3 1=0 -23303=1,0 4=1 5=1
Concat                   cat_140                  2 1 21 1672 1673 0=0
Reduction                mean_431                 1 1 337 1674 0=3 1=0 -23303=1,0 4=1 5=1
Concat                   cat_141                  2 1 15 1674 1675 0=0
Reduction                mean_429                 1 1 242 1676 0=3 1=0 -23303=1,0 4=1 5=1
Concat                   cat_142                  2 1 9 1676 1677 0=0
Reduction                mean_427                 1 1 147 1678 0=3 1=0 -23303=1,0 4=1 5=1
Concat                   cat_143                  2 1 3 1678 1679 0=0
Crop                     slice_345                1 1 1647 out0 -23310=1,-233 -23311=1,0 -23309=1,2
Crop                     slice_344                1 1 1615 out64 -23310=1,-2 -23311=1,1 -23309=1,-32
Crop                     slice_342                1 1 1589 1682 -23310=1,-233 -23311=1,0 -23309=1,34
Crop                     slice_343                1 1 1682 out63 -23310=1,-233 -23311=1,0 -23309=1,-8
Crop                     slice_340                1 1 1584 1684 -23310=1,-233 -23311=1,0 -23309=1,34
Crop                     slice_341                1 1 1684 out62 -23310=1,-233 -23311=1,0 -23309=1,-8
Crop                     slice_339                1 1 1649 out61 -23310=1,-233 -23311=1,0 -23309=1,1
Crop                     slice_338                1 1 1520 out60 -23310=1,-2 -23311=1,1 -23309=1,-32
Crop                     slice_336                1 1 1494 1688 -23310=1,-233 -23311=1,0 -23309=1,34
Crop                     slice_337                1 1 1688 out59 -23310=1,-233 -23311=1,0 -23309=1,-8
Crop                     slice_334                1 1 1489 1690 -23310=1,-233 -23311=1,0 -23309=1,34
Crop                     slice_335                1 1 1690 out58 -23310=1,-233 -23311=1,0 -23309=1,-8
Crop                     slice_333                1 1 1651 out57 -23310=1,-233 -23311=1,0 -23309=1,1
Crop                     slice_332                1 1 1425 out56 -23310=1,-2 -23311=1,1 -23309=1,-32
Crop                     slice_330                1 1 1399 1694 -23310=1,-233 -23311=1,0 -23309=1,34
Crop                     slice_331                1 1 1694 out55 -23310=1,-233 -23311=1,0 -23309=1,-8
Crop                     slice_328                1 1 1394 1696 -23310=1,-233 -23311=1,0 -23309=1,34
Crop                     slice_329                1 1 1696 out54 -23310=1,-233 -23311=1,0 -23309=1,-8
Crop                     slice_327                1 1 1653 out53 -23310=1,-233 -23311=1,0 -23309=1,1
Crop                     slice_326                1 1 1330 out52 -23310=1,-2 -23311=1,1 -23309=1,-32
Crop                     slice_324                1 1 1304 1700 -23310=1,-233 -23311=1,0 -23309=1,34
Crop                     slice_325                1 1 1700 out51 -23310=1,-233 -23311=1,0 -23309=1,-8
Crop                     slice_322                1 1 1299 1702 -23310=1,-233 -23311=1,0 -23309=1,34
Crop                     slice_323                1 1 1702 out50 -23310=1,-233 -23311=1,0 -23309=1,-8
Crop                     slice_321                1 1 1655 out49 -23310=1,-233 -23311=1,0 -23309=1,1
Crop                     slice_320                1 1 1235 out48 -23310=1,-2 -23311=1,1 -23309=1,-32
Crop                     slice_318                1 1 1209 1706 -23310=1,-233 -23311=1,0 -23309=1,34
Crop                     slice_319                1 1 1706 out47 -23310=1,-233 -23311=1,0 -23309=1,-8
Crop                     slice_316                1 1 1204 1708 -23310=1,-233 -23311=1,0 -23309=1,34
Crop                     slice_317                1 1 1708 out46 -23310=1,-233 -23311=1,0 -23309=1,-8
Crop                     slice_315                1 1 1657 out45 -23310=1,-233 -23311=1,0 -23309=1,1
Crop                     slice_314                1 1 1140 out44 -23310=1,-2 -23311=1,1 -23309=1,-32
Crop                     slice_312                1 1 1114 1712 -23310=1,-233 -23311=1,0 -23309=1,34
Crop                     slice_313                1 1 1712 out43 -23310=1,-233 -23311=1,0 -23309=1,-8
Crop                     slice_310                1 1 1109 1714 -23310=1,-233 -23311=1,0 -23309=1,34
Crop                     slice_311                1 1 1714 out42 -23310=1,-233 -23311=1,0 -23309=1,-8
Crop                     slice_309                1 1 1659 out41 -23310=1,-233 -23311=1,0 -23309=1,1
Crop                     slice_308                1 1 1045 out40 -23310=1,-2 -23311=1,1 -23309=1,-32
Crop                     slice_306                1 1 1019 1718 -23310=1,-233 -23311=1,0 -23309=1,34
Crop                     slice_307                1 1 1718 out39 -23310=1,-233 -23311=1,0 -23309=1,-8
Crop                     slice_304                1 1 1014 1720 -23310=1,-233 -23311=1,0 -23309=1,34
Crop                     slice_305                1 1 1720 out38 -23310=1,-233 -23311=1,0 -23309=1,-8
Crop                     slice_303                1 1 1661 out37 -23310=1,-233 -23311=1,0 -23309=1,1
Crop                     slice_302                1 1 950 out36 -23310=1,-2 -23311=1,1 -23309=1,-32
Crop                     slice_300                1 1 924 1724 -23310=1,-233 -23311=1,0 -23309=1,34
Crop                     slice_301                1 1 1724 out35 -23310=1,-233 -23311=1,0 -23309=1,-8
Crop                     slice_298                1 1 919 1726 -23310=1,-233 -23311=1,0 -23309=1,34
Crop                     slice_299                1 1 1726 out34 -23310=1,-233 -23311=1,0 -23309=1,-8
Crop                     slice_297                1 1 1663 out33 -23310=1,-233 -23311=1,0 -23309=1,1
Crop                     slice_296                1 1 855 out32 -23310=1,-2 -23311=1,1 -23309=1,-32
Crop                     slice_294                1 1 829 1730 -23310=1,-233 -23311=1,0 -23309=1,34
Crop                     slice_295                1 1 1730 out31 -23310=1,-233 -23311=1,0 -23309=1,-8
Crop                     slice_292                1 1 824 1732 -23310=1,-233 -23311=1,0 -23309=1,34
Crop                     slice_293                1 1 1732 out30 -23310=1,-233 -23311=1,0 -23309=1,-8
Crop                     slice_291                1 1 1665 out29 -23310=1,-233 -23311=1,0 -23309=1,1
Crop                     slice_290                1 1 760 out28 -23310=1,-2 -23311=1,1 -23309=1,-32
Crop                     slice_288                1 1 734 1736 -23310=1,-233 -23311=1,0 -23309=1,34
Crop                     slice_289                1 1 1736 out27 -23310=1,-233 -23311=1,0 -23309=1,-8
Crop                     slice_286                1 1 729 1738 -23310=1,-233 -23311=1,0 -23309=1,34
Crop                     slice_287                1 1 1738 out26 -23310=1,-233 -23311=1,0 -23309=1,-8
Crop                     slice_285                1 1 1667 out25 -23310=1,-233 -23311=1,0 -23309=1,1
Crop                     slice_284                1 1 665 out24 -23310=1,-2 -23311=1,1 -23309=1,-32
Crop                     slice_282                1 1 639 1742 -23310=1,-233 -23311=1,0 -23309=1,34
Crop                     slice_283                1 1 1742 out23 -23310=1,-233 -23311=1,0 -23309=1,-8
Crop                     slice_280                1 1 634 1744 -23310=1,-233 -23311=1,0 -23309=1,34
Crop                     slice_281                1 1 1744 out22 -23310=1,-233 -23311=1,0 -23309=1,-8
Crop                     slice_279                1 1 1669 out21 -23310=1,-233 -23311=1,0 -23309=1,1
Crop                     slice_278                1 1 570 out20 -23310=1,-2 -23311=1,1 -23309=1,-32
Crop                     slice_276                1 1 544 1748 -23310=1,-233 -23311=1,0 -23309=1,34
Crop                     slice_277                1 1 1748 out19 -23310=1,-233 -23311=1,0 -23309=1,-8
Crop                     slice_274                1 1 539 1750 -23310=1,-233 -23311=1,0 -23309=1,34
Crop                     slice_275                1 1 1750 out18 -23310=1,-233 -23311=1,0 -23309=1,-8
Crop                     slice_273                1 1 1671 out17 -23310=1,-233 -23311=1,0 -23309=1,1
Crop                     slice_272                1 1 475 out16 -23310=1,-2 -23311=1,1 -23309=1,-32
Crop                     slice_270                1 1 449 1754 -23310=1,-233 -23311=1,0 -23309=1,34
Crop                     slice_271                1 1 1754 out15 -23310=1,-233 -23311=1,0 -23309=1,-8
Crop                     slice_268                1 1 444 1756 -23310=1,-233 -23311=1,0 -23309=1,34
Crop                     slice_269                1 1 1756 out14 -23310=1,-233 -23311=1,0 -23309=1,-8
Crop                     slice_267                1 1 1673 out13 -23310=1,-233 -23311=1,0 -23309=1,1
Crop                     slice_266                1 1 380 out12 -23310=1,-2 -23311=1,1 -23309=1,-32
Crop                     slice_264                1 1 354 1760 -23310=1,-233 -23311=1,0 -23309=1,34
Crop                     slice_265                1 1 1760 out11 -23310=1,-233 -23311=1,0 -23309=1,-8
Crop                     slice_262                1 1 349 1762 -23310=1,-233 -23311=1,0 -23309=1,34
Crop                     slice_263                1 1 1762 out10 -23310=1,-233 -23311=1,0 -23309=1,-8
Crop                     slice_261                1 1 1675 out9 -23310=1,-233 -23311=1,0 -23309=1,1
Crop                     slice_260                1 1 285 out8 -23310=1,-2 -23311=1,1 -23309=1,-32
Crop                     slice_258                1 1 259 1766 -23310=1,-233 -23311=1,0 -23309=1,34
Crop                     slice_259                1 1 1766 out7 -23310=1,-233 -23311=1,0 -23309=1,-8
Crop                     slice_256                1 1 254 1768 -23310=1,-233 -23311=1,0 -23309=1,34
Crop                     slice_257                1 1 1768 out6 -23310=1,-233 -23311=1,0 -23309=1,-8
Crop                     slice_255                1 1 1677 out5 -23310=1,-233 -23311=1,0 -23309=1,1
Crop                     slice_254                1 1 190 out4 -23310=1,-2 -23311=1,1 -23309=1,-32
Crop                     slice_252                1 1 164 1772 -23310=1,-233 -23311=1,0 -23309=1,34
Crop                     slice_253                1 1 1772 out3 -23310=1,-233 -23311=1,0 -23309=1,-8
Crop                     slice_250                1 1 159 1774 -23310=1,-233 -23311=1,0 -23309=1,34
Crop                     slice_251                1 1 1774 out2 -23310=1,-233 -23311=1,0 -23309=1,-8
Crop                     slice_249                1 1 1679 out1 -23310=1,-233 -23311=1,0 -23309=1,1
